MNIST/model/mnist_model_2024-03-06_17-16-20.pth (torch, 441559 bytes, 6 tensors)

weight f4 [128, 784]
-0.017814128 0.0046360698 -0.03771909 0.0024601535 -0.0009409634 -0.014166644 -0.039099347 -0.0234109
-0.0045762933 -0.025998542 -0.029953841 0.014873872 0.01778028 0.012034627 0.007406866 -0.033338036
0.0034315223 0.030694896 -0.012002185 0.031176675 -0.038754344 -0.0018662065 -0.018736675 0.028517623
-0.005925697 0.022283792 -0.011079801 -0.018730003 0.021688834 -0.0046570273 0.0023273544 -0.013502881
-0.029999284 0.023897773 0.02619939 -0.018210938 0.026435457 -0.027095085 0.008269781 -0.027134765
-0.0031776533 0.0029425372 -0.034378923 0.03174624 -0.013433841 -0.026840162 -0.02232003 0.015636459
-0.011810841 -0.024729447 0.007926113 -0.0114533845 0.004026907 0.030582897 0.012201871 -0.016736425
0.032167926 0.030266143 0.025961151 -0.011041349 -0.031820063 -0.0076578762 0.024725206 -0.019786952
-0.022436958 -0.003932965 0.005489985 0.017357606 0.011124179 0.0047962083 -0.018213023 -0.027197447
-0.013840748 -0.017953692 0.012763582 -0.0071059456 -0.023525327 -0.028196028 0.01255796 -0.017209347
-0.01072337 -0.010482766 -0.010070868 -0.029782113 -0.03119908 0.0016289952 -0.027910477 0.010888221
0.019685427 0.013532179 -0.033311732 -0.0334385 0.025890913 -0.026634699 -0.0018970331 -0.018981205
-0.004559538 0.019872312 -0.011637738 0.025052225 -0.035017267 -0.026351627 -0.037369467 -0.02128554
-0.015738117 -0.017275715 0.0067288345 -0.014379804 -0.03539584 -0.02787423 0.02480227 0.0024100598
0.013084103 -0.032348603 0.004927532 -0.0010479336 -0.01456189 -0.0115431445 0.027487481 0.0105115175
-0.008201515 -0.015673658 -0.027839208 -0.025049528 0.0038254354 -0.018984618 -0.0142607335 -0.012045676
-0.034821797 0.025813477 -0.020118812 -0.02340145 -0.0052621397 -0.0128060905 -0.012565842 -0.031150665
0.026278682 0.0072133527 -0.033965353 0.031611178 -0.005916101 0.005162096 -0.038245313 0.01884463
-0.00997374 -0.0031316178 0.02024771 -0.014203957 0.002980343 -0.018422479 0.016701972 -0.013409719
-0.012407961 -0.019787662 -0.035276875 -0.042249177 0.00475265 -0.03880185 0.01668235 -0.040262826
-0.015574091 0.0057667536 -0.0040146355 0.0081573585 -0.022668904 0.0010344981 -0.027728396 -0.0024816778
0.017817684 -0.023707338 0.018996837 -0.018900841 -0.014654005 0.004977551 0.021416167 0.01580541
-0.028774524 0.001437364 -0.02982335 -0.0034972043 -0.0038213378 -0.031493295 0.03455079 0.016924651
-0.03213521 -0.002311277 -0.0025641543 -0.028203262 0.004429494 0.0009359562 -0.02850438 -0.0003414845
-0.005571288 -0.0026552442 0.02948126 -0.0013458326 -0.0241954 0.024843745 0.00055320596 0.021802386
-0.033142354 0.028452033 -0.036192726 0.0038249542 -0.030642787 0.01860034 0.025098277 0.011880197
0.03495173 -0.025695689 0.022681134 0.055708725 0.015390843 0.015049539 -0.029094113 0.0062258374
-0.02472173 0.0028913892 -0.019823428 0.009665417 0.0074683074 -0.009091684 -0.008166303 0.019313527
0.017149206 0.008866187 0.015030775 -0.025555028 -0.024422945 -0.009553987 -0.009529999 -0.004684794
-0.01611762 0.0153129315 -0.009969823 0.02980057 0.036124572 0.03814409 0.039341584 0.043581557
-0.0009218686 0.024629517 0.041029062 -0.011560438 0.0047847168 -0.020342624 -0.025640946 0.020556945
-0.04352559 0.023307018 0.03041668 -0.03212976 0.03159607 0.0020207972 -0.021705003 0.004089781
00000000: efee 91bc 2cea 973b 557f 1abd 873a 213b
00000010: fcaa 76ba 361b 68bc a326 20bd 37c8 bfbc
00000020: bbf4 95bb e5fa d4bc c261 f5bc 8ab1 733c
00000030: f3a7 913c e22c 453c 4cb5 f23b 778d 08bd
00000040: 64e3 603b dd73 fb3c d0a4 44bc 3a66 ff3c
00000050: e0bc 1ebd 809b f4ba a87d 99bc ca9d e93c
00000060: 592c c2bb 808c b63c 0e88 35bc aa6f 99bc
00000070: c8ac b13c fa99 98bb 8786 183b 303b 5dbc
00000080: 0fc1 f5bc 43c5 c33c 1aa0 d63c 1b2f 95bc
00000090: 2c8f d83c 83f6 ddbc fa7d 073c ba49 debc
000000a0: 2d40 50bb 95d7 403b ead0 0cbd 5808 023d
000000b0: 9d19 5cbc e6df dbbc 7fd8 b6bc 0818 803c
000000c0: 4282 41bc 6995 cabc 87dc 013c faa6 3bbc
000000d0: 25f4 833b fc88 fa3c 5bea 473c d41a 89bc
000000e0: 84c2 033d b4f0 f73c 7bac d43c c6e6 34bc
000000f0: c155 02bd ecee fabb 848c ca3c 3f18 a2bc
00000100: b6cd b7bc 1ae0 80bb 55e5 b33b 8a31 8e3c
00000110: 3042 363c 8329 9d3b 7a33 95bc 2ecd debc
00000120: 4ec4 62bc 9f13 93bc 581e 513c fed8 e8bb
00000130: 30b8 c0bc 5bfb e6bc e7bf 4d3c 9efa 8cbc
00000140: 13b1 2fbc e8bf 2bbc 4800 25bc 9ef9 f3bc
00000150: 3795 ffbc 0284 d53a 83a4 e4bc 8264 323c
00000160: 5543 a13c 13b6 5d3c e271 08bd cff6 08bd
00000170: 2e19 d43c 0331 dabc dea5 f8ba 797e 9bbc
00000180: 2d68 95bb 42cb a23c 36ac 3ebc 533a cd3c
00000190: 446e 0fbd 5edf d7bc ba10 19bd 035f aebc
000001a0: 39ed 80bc cd85 8dbc 8e7d dc3b 4599 6bbc
000001b0: 3afb 10bd 7f58 e4bc 212e cb3c 18f2 1d3b
000001c0: b55e 563c f87f 04bd 2277 a13b d15a 89ba
000001d0: fe94 6ebc 751f 3dbc 6d2d e13c 8038 2c3c
000001e0: a65f 06bc 0b66 80bc 0d0f e4bc ab34 cdbc
000001f0: 28b4 7a3b a185 9bbc daa5 69bc 3a5b 45bc
00000200: 4da1 0ebd c976 d33c 35d0 a4bc 66b4 bfbc
00000210: 076e acbb a3d0 51bc f6e0 4dbc ae2f ffbc
00000220: 6446 d73c fd5d ec3b 411f 0bbd b97a 013d
00000230: dadb c1bb cd26 a93b 1ea7 1cbd 0e60 9a3c
00000240: e668 23bc d43b 4dbb 87de a53c b7b7 68bc
00000250: dc51 433b bdea 96bc 93d2 883c 70b4 5bbc
00000260: c34a 4bbc bc19 a2bc 7c7e 10bd 790d 2dbd
00000270: 1ebc 9b3b b0ee 1ebd 6ca9 883c a2ea 24bd
00000280: 792a 7fbc 09f7 bc3b 348d 83bb 71a6 053c
00000290: 23b4 b9bc ff97 873a a926 e3bc a5a3 22bb
000002a0: 64f6 913c e435 c2bc 419f 9b3c f0d5 9abc
000002b0: 5a17 70bc b91a a33b f570 af3c 597a 813c
000002c0: 8db8 ebbc ef65 bc3a 1950 f4bc 5a31 65bb
000002d0: 696f 7abb 1dff 00bd 2185 0d3d 91a5 8a3c
000002e0: 36a0 03bd cb78 17bb 5f0b 28bb 870a e7bc
000002f0: 4a25 913b f55a 753a 0482 e9bc 4609 b3b9
00000300: 5a8f b6bb 9b03 2ebb af82 f13c a666 b0ba
00000310: 6e35 c6bc 1c85 cb3c 0605 113a eb9a b23c
00000320: 47c0 07bd 3d14 e93c d33e 14bd 15ac 7a3b
00000330: 9506 fbbc bd5f 983c e79a cd3c 28a5 423c
00000340: 8c29 0f3d c47f d2bc c9cd b93c d52e 643d
00000350: e029 7c3c 5792 763c c756 eebc 1c02 cc3b
00000360: 3a85 cabc 767d 3d3b be64 a2bc b25b 1e3c
00000370: b4b8 f43b 49f5 14bc f5cb 05bc 6737 9e3c
00000380: 7e7c 8c3c 7c43 113c a443 763c c758 d1bc
00000390: a112 c8bc 5388 1cbc b723 1cbc e782 99bb
000003a0: 1909 84bc 17e3 7a3c 7858 23bc 5320 f43c
000003b0: 5cf7 133d fa3c 1c3d a424 213d 9382 323d
000003c0: 8ea9 71ba d7c3 c93c 170e 283d fe67 3dbc
000003d0: 1dc9 9c3b 93a5 a6bc f60c d2bc 0a67 a83c
000003e0: e447 32bd 5cee be3c 672c f93c 7f9a 03bd
000003f0: e16a 013d 5a6f 043b b1ce b1bc 9203 863b

bias f4 [128]
-0.0016302373 0.016540578 -0.022751227 -0.01825863 0.016050328 0.021422312 0.016780341 -0.010768352
0.00026056427 0.028283797 -0.0017049133 -0.016765667 -0.03520152 0.000587715 0.0067911865 0.037801325
4.775203e-05 0.030763263 0.017006878 0.0063050217 0.032984145 0.0025020011 -0.02258473 -0.0035309317
-0.02583537 0.027583782 -0.015792783 0.016082278 0.03635655 0.010909083 0.0054998226 0.005042028
0.025564238 0.031098753 0.0073739877 0.034722414 0.0023026234 0.03705306 -0.025145924 0.023489382
0.026688805 0.0018281838 0.028450439 0.0028732726 -0.0068908543 0.021124475 0.026240582 0.025359344
-0.024125613 0.00030794882 0.011473523 0.0321026 -0.029476663 -0.0029276242 0.0019920387 -0.013904842
-0.018950174 -0.019849412 -0.009356086 0.02750239 0.021850664 -0.017477306 -0.025980113 0.008803477
0.026561836 -0.031947184 0.0049293307 0.02169369 0.034096442 -0.0006361582 0.0063347984 -0.005888744
-0.011615228 -0.01318607 0.014824882 0.009094281 0.00011729318 -0.018183418 0.01813949 0.0060931314
0.0018605405 0.010173309 -0.0128379585 0.03836048 -0.021655386 0.018870115 0.016180906 -0.008715478
-0.007431667 -0.023262775 -0.003268632 -0.0012044437 0.021775346 -0.022387996 0.034166187 0.0076605314
-0.008471644 -0.013457295 -0.009508829 0.023567354 -0.018772515 -0.0041622645 -0.00853587 0.0060385787
-0.0021358589 -0.011908974 0.013623993 0.034937385 0.022241628 0.027012067 0.0024009803 0.007173023
0.028045453 0.010840472 -0.023730716 0.02264211 0.022439018 0.032774806 0.032528374 0.008453076
-0.018303167 0.031831633 0.014438717 0.023565229 -0.014627548 0.031693704 0.032411505 0.014061015
00000000: b0ad d5ba 1b80 873c c860 babc 1f93 95bc
00000010: fa7b 833c d87d af3c ed76 893c be6d 30bc
00000020: 589c 8839 6cb3 e73c 6677 dfba 2758 89bc
00000030: 782f 10bd e310 1a3a 9a88 de3b 90d5 1a3d
00000040: 5a49 4838 3d03 fc3c 0252 8b3c 5b9a ce3b
00000050: 621a 073d 9df8 233b 9d03 b9bc 3467 67bb
00000060: b3a4 d3bc 62f7 e13c de5f 81bc fbbe 833c
00000070: 9bea 143d 03bc 323c db37 b43b 9937 a53b
00000080: 186c d13c d0c2 fe3c 7ea1 f13b 1739 0e3d
00000090: 9ce7 163b f3c4 173d d3fe cdbc ce6c c03c
000000a0: 7ba2 da3c ab9f ef3a e510 e93c 844d 3c3b
000000b0: adcc e1bb 3c0d ad3c 7df6 d63c 66be cf3c
000000c0: 14a3 c5bc 3174 a139 72fb 3b3c 047e 033d
000000d0: 0b79 f1bc 62dd 3fbb dd8c 023b 22d1 63bc
000000e0: 653d 9bbc 3c9b a2bc 454a 19bc b14c e13c
000000f0: 2a00 b33c 912c 8fbc 3fd4 d4bc 753c 103c
00000100: 3598 d93c 0ddb 02bd 3986 a13b f7b6 b13c
00000110: b6a8 0b3d dbc3 26ba 2494 cf3b 5df6 c0bb
00000120: cc4d 3ebc 630a 58bc 10e4 723c 2e00 153c
00000130: 4cfb f538 64f5 94bc 4599 943c e4a8 c73b
00000140: 61dd f33a f3ad 263c 4d56 52bc e11f 1d3d
00000150: a366 b1bc 8095 9a3c d28d 843c 5dcb 0ebc
00000160: 5785 f3bb 9391 bebc 8c36 56bb 6dde 9dba
00000170: 3662 b23c 0867 b7bc d8f1 0b3d 3205 fb3b
00000180: a6cc 0abc fc7b 5cbc ebca 1bbc 5310 c13c
00000190: d1c8 99bc 9b63 88bb 09da 0bbc 45df c53b
000001a0: c4f9 0bbb db1d 43bc 2b37 5f3c 811a 0f3d
000001b0: 1334 b63c 6948 dd3c c459 1d3b ae0b eb3b
000001c0: 94bf e53c 3c9c 313c eb66 c2bc f27b b93c
000001d0: 08d2 b73c e03e 063d 793c 053d c57e 0a3c
000001e0: 86f0 95bc e361 023d 5e90 6c3c de0b c13c
000001f0: 62a8 6fbc 42d1 013d edc1 043d 2c60 663c

weight f4 [64, 128]
-0.048762392 -0.0030014676 -0.0203196 0.009271593 0.12795796 0.017947162 -0.10087064 -0.052424453
0.09007734 0.090029344 0.05803639 -0.06914491 -0.052322965 0.006127318 0.10809956 0.040143743
0.010241573 0.022721196 -0.070766255 -0.029703865 0.088412955 -0.06616557 -0.06547458 0.08535167
0.036325928 0.08230753 -0.0775222 -0.0113400305 -0.036135517 0.12312072 0.110952176 -0.047529686
-0.024202922 0.044461153 0.02771257 0.074142754 0.038403902 -0.0673182 0.036677632 -0.048842803
0.054040615 -0.07289286 0.07190809 -0.013473844 -0.11245449 -0.08638829 -0.08696699 -0.042973656
-0.09337324 0.079043545 -0.048595436 -0.01744141 -0.030639332 -0.07841228 -0.09147305 0.032727174
-0.060472198 0.011762797 0.02383021 0.06668175 -0.03901803 0.01245745 0.0772809 -0.10567653
0.059403416 0.013642157 0.09835703 0.09889026 0.055447526 0.03332401 0.084344454 -0.020746699
0.08823054 -0.01728644 -0.08126895 0.08392356 0.04968105 -0.005239115 -0.072611354 0.056824636
0.015055629 0.049563546 0.10623505 -0.026090974 -0.012753196 0.077158615 0.1030394 0.094706364
0.029507104 0.096662305 -0.020516576 -0.021029161 0.06325995 0.0059632887 0.003517839 0.09015247
0.07423052 -0.072695404 0.029262425 -0.02103844 -0.07146812 0.07576086 0.004337664 -0.015841117
0.09193618 0.02074235 -0.096093245 0.087431125 -0.043643575 -0.0066762306 0.0236879 0.023305707
-0.03826322 -0.04950174 -0.037302643 0.06415007 -0.0025579114 0.0373421 0.03259073 0.040123325
0.063730635 -0.06460586 -0.03661029 0.083889015 0.07558677 -0.002817272 0.08116114 -0.023711007
0.053868942 0.06191225 -0.086555734 -0.08000679 -0.07566496 0.06987103 -0.10948579 -0.0048548635
0.036752395 0.1303214 0.07359289 0.014779284 -0.085804924 -0.009073652 -0.028957782 0.009350589
0.046020295 -0.004970889 0.030363604 -0.023182949 -0.016799893 0.005066418 0.06956448 -0.024612473
-0.0023019796 0.04446099 -0.08180446 -0.039768994 -0.033112194 0.087427475 -0.060942437 0.02084967
0.026783252 -0.021085372 0.042180862 0.07884157 -0.011343558 0.047241125 -0.022990279 0.06274009
0.10791339 0.052304413 0.008353925 0.009007877 0.07058784 -0.04363807 0.01804958 0.039752945
-0.04038505 0.0217357 0.08511865 0.10500606 0.08745269 0.09332524 -0.056967773 -0.062753364
-0.009790189 0.026239166 0.08219899 -0.0790098 0.07877943 -0.0217746 0.055234447 -0.057713665
0.09049845 -0.03637844 -0.116795175 -0.10923079 0.046192136 0.009735942 -0.049307905 0.040985145
-0.08287749 0.09740959 0.08098091 0.05193515 -0.041395146 0.06405193 -0.007111249 0.016773736
-0.04824822 -0.066274084 0.0787764 0.10296043 -0.049670633 -0.07726206 -0.08051233 0.046980973
-0.08416964 -0.06849452 0.0028516275 0.07200074 -0.040385656 -0.11265955 0.058975395 -0.017490726
-0.048160598 -0.0028583368 0.08619661 0.10079272 -0.051955897 -0.05801579 0.020815454 -0.05161967
0.058988325 0.06297317 0.06804504 -0.028599167 0.023297036 -0.07627574 0.080819465 0.05175395
-0.061212208 -0.05949809 -0.051847994 -0.10288783 -0.04029675 -0.03743255 0.06927331 0.06266528
0.026862618 0.026953064 0.011822325 0.06023263 0.050129108 -0.03929113 -0.047841348 0.023349885
00000000: 13bb 47bd 45b4 44bb 4a75 a6bc e1e7 173c
00000010: 6907 033e ed05 933c 4495 cebd 06bb 56bd
00000020: 787a b83d 4e61 b83d 91b7 6d3d d99b 8dbd
00000030: 9b50 56bd abc7 c83b 4d63 dd3d c46d 243d
00000040: 45cc 273c cd21 ba3c e6ed 90bd 8555 f3bc
00000050: da11 b53d d081 87bd 8917 86bd dbcc ae3d
00000060: 7fca 143d da90 a83d f6c3 9ebd 89cb 39bc
00000070: d602 14bd b726 fc3d e53a e33d 7dae 42bd
00000080: 3545 c6bc e61c 363d 7905 e33c 28d8 973d
00000090: 694d 1d3d 20de 89bd 493b 163d 640f 48bd
000000a0: b159 5d3d da48 95bd 8c44 933d 66c1 5cbc
000000b0: 8a4e e6bd 58ec b0bd c01b b2bd 2505 30bd
000000c0: 783a bfbd 95e1 a13d 020c 47bd 4ae1 8ebc
000000d0: 56ff fabc 9e96 a0bd 3956 bbbd ee0c 063d
000000e0: b2b1 77bd bfb8 403c 9337 c33c 7190 883d
000000f0: 5fd1 1fbd 551a 4c3c 7345 9e3d f06c d8bd
00000100: ff50 733d 5b83 5f3c 696f c93d fa86 ca3d
00000110: f21c 633d c27e 083d c9bc ac3d fbf4 a9bc
00000120: 37b2 b43d 4b9c 8dbc 5670 a6bd 1ee0 ab3d
00000130: 5b7e 4b3d e2ac abbb 43b5 94bd f3c0 683d
00000140: e3ab 763c 2503 4b3d c391 d93d bdbc d5bc
00000150: c8f2 50bc 5605 9e3d 5206 d33d 69f5 c13d
00000160: e2b8 f13c e3f6 c53d 6112 a8bc 5945 acbc
00000170: 6f8e 813d b167 c33b 8b8b 663b dca1 b83d
00000180: 2c06 983d 54e1 94bd c1b7 ef3c ce58 acbc
00000190: e15d 92bd 8328 9b3d f722 8e3b 3bc5 81bc
000001a0: 0949 bc3d dceb a93c 89cc c4bd 170f b33d
000001b0: 9bc3 32bd 48c4 dabb 200d c23c 9ceb be3c
000001c0: e5b9 1cbd 56c2 4abd a8ca 18bd 1d61 833d
000001d0: a2a2 27bb 08f4 183d db7d 053d 5b58 243d
000001e0: 3585 823d 1450 84bd acf4 15bd 01ce ab3d
000001f0: 3dcd 9a3d fba1 38bb d037 a63d 963d c2bc
00000200: aea5 5c3d b397 7d3d 2244 b1bd 9ada a3bd
00000210: 3bf6 9abd 8b18 8f3d 163a e0bd 8c15 9fbb
00000220: ae89 163d f972 053e deb7 963d cf24 723c
00000230: 7eba afbd a8a9 14bc df38 edbc 3633 193c
00000240: c77f 3c3d d7e2 a2bb 18bd f83c 2bea bdbc
00000250: ee9f 89bc 3204 a63b d277 8e3d 19a0 c9bc
00000260: cfdc 16bb ba1c 363d 1989 a7bd d0e4 22bd
00000270: a7a0 07bd 2d0d b33d c79e 79bd edcc aa3c
00000280: 8d68 db3c 3bbb acbc d7c5 2c3d b077 a13d
00000290: 55da 39bc e97f 413d 1c56 bcbc e07d 803d
000002a0: b201 dd3d 273d 563d e7de 083c c695 133c
000002b0: 5c90 903d d5bd 32bd b6dc 933c fcd3 223d
000002c0: cb6a 25bd 110f b23c b052 ae3d 6b0d d73d
000002d0: 651a b33d 4e21 bf3d 0a57 69bd d684 80bd
000002e0: 0767 20bc 85f3 d63c f257 a83d e4cf a1bd
000002f0: 1c57 a13d a560 b2bc 843d 623d 2a65 6cbd
00000300: 4057 b93d 8f01 15bd 4f32 efbd 64b4 dfbd
00000310: f733 3d3d 8083 1f3c 16f7 49bd 0ae0 273d
00000320: acbb a9bd ae7e c73d 52d9 a53d f4b9 543d
00000330: f58d 29bd a92d 833d 7b05 e9bb 1369 893c
00000340: ed9f 45bd b5ba 87bd 8555 a13d ebdc d23d
00000350: 6f73 4bbd 923b 9ebd a6e3 a4bd 1f6f 403d
00000360: 2261 acbd db46 8cbd 5fe2 3a3b 2075 933d
00000370: 6e6b 25bd 0dba e6bd 2f90 713d b648 8fbc
00000380: 0c44 45bd ef52 3bbb d987 b03d 6a6c ce3d
00000390: b5cf 54bd f7a1 6dbd 2c85 aa3c 266f 53bd
000003a0: be9d 713d 14f8 803d 335b 8b3d cd48 eabc
000003b0: 6dd9 be3c 7536 9cbd ad84 a53d f3fb 533d
000003c0: a7b9 7abd 45b4 73bd 905e 54bd dbb6 d2bd
000003d0: 340e 25bd e052 19bd 2adf 8d3d a856 803d
000003e0: fe0e dc3c accc dc3c 6db2 413c 7eb6 763d
000003f0: 2e54 4d3d bcef 20bd 4af5 43bd 4248 bf3c

bias f4 [64]
-0.062076565 0.015451871 0.016191317 -0.023926891 0.05396705 0.046778996 0.08516668 -0.039320637
0.0903662 0.03384262 -0.05430798 -0.07707432 0.08475432 -0.054994896 0.040243458 0.075647436
-0.044414315 0.091591895 0.02469697 0.073726125 -0.06835112 0.04278216 -0.04404609 0.015679793
-0.08252234 0.055530068 -0.01867397 -0.021846086 -0.0022298887 -0.0012475618 0.04385007 -0.030821953
0.08262947 -0.011264177 -0.07524825 0.045323346 -0.004737525 -0.0154663185 -0.040794 -0.082167365
-0.0042204834 0.03836881 -0.021571724 0.054579485 -0.01653201 -0.029955737 0.06894625 0.062939756
0.08807533 -0.05708404 0.071106195 0.005965137 0.03389313 -0.06752469 0.033186745 -0.030750722
0.008145632 -0.042202238 -0.03997174 0.08748087 0.057141278 0.06617709 0.05706768 0.040997293
00000000: ff43 7ebd d829 7d3c a7a3 843c 5402 c4bc
00000010: 8e0c 5d3d 559b 3f3d de6b ae3d ad0e 21bd
00000020: ea11 b93d 8f9e 0a3d 0b72 5ebd 24d9 9dbd
00000030: ac93 ad3d 5442 61bd 53d6 243d 0bed 9a3d
00000040: c9eb 35bd 8894 bb3d 4d51 ca3c b9fd 963d
00000050: acfb 8bbd 593c 2f3d ac69 34bd e972 803c
00000060: 7901 a9bd 7f73 633d 27fa 98bc 90f6 b2bc
00000070: 5323 12bb 3a85 a3ba 229c 333d 527e fcbc
00000080: a439 a93d 628d 38bc c11b 9abd f9a4 393d
00000090: 3d3d 9bbb 7166 7dbc 9c17 27bd 5d47 a8bd
000000a0: fb4b 8abb 9d28 1d3d 2fb7 b0bc bd8e 5f3d
000000b0: 236e 87bc bc65 f5bc b133 8d3d 8fe6 803d
000000c0: d760 b43d f4d0 69bd 20a0 913d 3277 c33b
000000d0: 86d3 0a3d 624a 8abd d3ee 073d f0e8 fbbc
000000e0: 4275 053c 41dc 2cbd 68b9 23bd 2c29 b33d
000000f0: f90c 6a3d db87 873d cdbf 693d c7ec 273d

weight f4 [10, 64]
-0.08496813 -0.1593673 -0.19795139 0.15140563 0.08787024 -0.06299966 -0.040582348 -0.1982479
-0.22706135 0.19722576 0.017431125 0.13507973 0.06503837 -0.07786503 0.09713049 -0.004637189
-0.073237285 0.22499196 0.11641767 0.03342567 -0.10176671 -0.10537475 0.016849356 0.09113274
0.20781334 -0.1283417 0.030217325 -0.22178668 -0.042478014 0.12888378 -0.2408979 0.19612293
-0.10529953 0.14174578 -0.1080533 -0.036554858 0.047236014 -0.15279187 -0.054603938 0.00020333509
-0.15069318 0.02899055 -0.21263291 -0.17438062 -0.16996606 -0.19796516 0.2736623 0.06122798
0.17757927 -0.09613346 -0.001792226 -0.13954228 0.114321336 -0.015571192 0.2791771 0.08978576
-0.041068215 -0.00022215043 -0.12951705 -0.049967658 -0.14332445 0.024379889 0.15346707 -0.18845053
-0.25016844 0.105439916 0.0050924323 -0.09243772 -0.24545193 -0.24911693 0.057159614 0.035100073
0.26790643 -0.092660025 -0.0876633 0.02643356 -0.06808711 0.1467959 0.067701094 -0.08883419
0.15284105 0.03503596 -0.13099943 0.11785181 -0.04768551 0.17762586 0.029557021 -0.024244234
-0.03456361 0.1265804 -0.09260576 0.27109215 0.19478641 -0.019114792 0.011427206 -0.17742565
-0.07207652 0.0033619031 0.049609248 0.17431459 0.19397737 -0.03932083 -0.122223385 -0.057408325
0.036388487 0.012915885 0.01041994 -0.027957605 0.22014691 -0.113420166 -0.15628317 -0.12727167
-0.16849746 0.015461726 -0.10800336 -0.0073837116 0.002456401 0.052130297 -0.14497028 -0.22320136
-0.07469014 -0.01788514 0.2783929 0.21090722 -0.188758 -0.18486989 0.03226421 -0.21287045
0.15185751 0.17299072 -0.014139641 0.21507569 0.11882436 0.010329144 0.20044446 0.07077544
0.14405073 0.078041375 -0.0492764 -0.042260755 0.017642915 -0.04436538 -0.1821623 -0.26783553
-0.046289176 0.01560562 -0.045894165 0.19479105 0.29379693 -0.042302057 -0.24273987 0.032558043
0.14735602 0.059081662 -0.040561713 0.11802038 -0.07278827 -0.0643036 -0.093499646 -0.031781945
-0.093141526 0.18814224 0.12222586 -0.06371756 -0.03736452 -0.026164135 0.08500414 0.021936715
-0.10231022 0.25789574 0.14400098 -0.14710145 -0.0381185 -0.18619736 -0.013642676 -0.2658727
0.21043451 -0.19344291 -0.0069521847 0.16090633 0.05217811 0.056318 -0.05894786 -0.029999534
-0.062669456 0.081246465 0.09660699 0.13250516 0.11606759 -0.07833967 -0.190788 -0.13923138
-0.06616622 -0.17212743 0.22910325 0.10913213 -0.035043966 -0.1602182 0.018334819 -0.0974374
-0.018983766 0.18653959 0.009721371 -0.07124883 -0.19128142 -0.14791688 -0.15204524 -0.19999284
0.22718863 0.14435278 0.17670041 0.04757117 0.0025906449 -0.087165445 0.061061125 0.0076673147
-0.23033866 0.08183507 -0.07552495 -0.071684495 -0.18310794 -0.008977284 0.2968144 0.16386111
0.03238576 -0.026100831 0.040698364 -0.100988984 0.0442569 -0.0053230915 0.14444183 -0.10134777
0.10581334 0.20196074 0.120002694 0.27629155 0.05139367 -0.14312187 0.03792466 -0.20173739
0.18123749 -0.043522872 0.040287536 -0.07321037 -0.036929563 -0.059343472 -0.18287012 -0.023408778
-0.015127225 -0.147963 -0.09062716 -0.10604812 -0.1690021 0.01603355 -0.093258575 0.10087918
00000000: c503 aebd 2e31 23be c5b3 4abe 140a 1b3e
00000010: 50f5 b33d f705 81bd ad39 26bd 7f01 4bbe
00000020: c582 68be 8df5 493e b8cb 8e3c 5752 0a3e
00000030: d632 853d b377 9fbd 5aec c63d 90f3 97bb
00000040: 6efd 95bd 4b64 663e 636c ee3d 5be9 083d
00000050: 116b d0bd b8ce d7bd a907 8a3c cda3 ba3d
00000060: 05cd 543e 026c 03be 538a f73c 0c1c 63be
00000070: 6dfd 2dbd 1cfa 033e f0ad 76be 73d4 483e
00000080: 48a7 d7bd ce25 113e 0c4b ddbd 8cba 15bd
00000090: 8d7a 413d 7975 1cbe 61a8 5fbd 5936 5539
000000a0: 504f 1abe 977d ed3c 71bc 59be d590 32be
000000b0: 950b 2ebe 61b7 4abe 771d 8c3e 31ca 7a3d
000000c0: 57d7 353e 9fe1 c4bd 20e9 eaba 2ce4 0ebe
000000d0: 4e21 ea3d 501e 7fbc 4df0 8e3e 99e1 b73d
000000e0: 2537 28bd 0df1 68b9 1ea0 04be e3aa 4cbd
000000f0: a5c3 12be 55b8 c73c 7926 1d3e 2df9 40be
00000100: 1416 80be e2f0 d73d 6bde a63b fd4f bdbd
00000110: c057 7bbe 8218 7fbe 3320 6a3d 18c5 0f3d
00000120: 082b 893e 8ac4 bdbd d188 b3bd 318b d83c
00000130: 4171 8bbd aa51 163e dfa6 8a3d b3ee b5bd
00000140: 5d82 1c3e de81 0f3d b724 06be 4a5c f13d
00000150: e251 43bd 8ee3 353e 9121 f23c d89b c6bc
00000160: 9292 0dbd 4b9e 013e 17a8 bdbd 97cc 8a3e
00000170: 1776 473e a096 9cbc 2d39 3b3c 12af 35be
00000180: db9c 93bd 6053 5c3b 1133 4b3d 867f 323e
00000190: 01a2 463e e10e 21bd 4150 fabd fe24 6bbd
000001a0: 180c 153d 269d 533c 65b8 2a3c 5907 e5bc
000001b0: 316e 613e d548 e8bd b208 20be 8153 02be
000001c0: 998a 2cbe 2e53 7d3c de30 ddbd 10f3 f1bb
000001d0: 92fb 203b 9486 553d 1773 14be e68e 64be
000001e0: 25f7 98bd db83 92bc 8489 8e3e 10f8 573e
000001f0: c749 41be 884e 3dbe 7a27 043d b6fa 59be
00000200: 8980 1b3e 7b24 313e f4a9 67bc cd3c 5c3e
00000210: 305a f33d 923b 293c 5041 4d3e b7f2 903d
00000220: 0982 133e 28d4 9f3d 0dd6 49bd 9d19 2dbd
00000230: e087 903c 79b8 35bd c188 3abe bd21 89be
00000240: b899 3dbd b7ae 7f3c 85fb 3bbd 4e77 473e
00000250: 8d6c 963e ec44 2dbd cd90 78be 955b 053d
00000260: 7fe4 163e 9dff 713d 0a24 26bd abb4 f13d
00000270: 0412 95bd 9bb1 83bd be7c bfbd c92d 02bd
00000280: fcc0 bebd 5ca8 403e 8d51 fa3d 5a7e 82bd
00000290: 8a0b 19bd 2b56 d6bc a716 ae3d a0b4 b33c
000002a0: 0588 d1bd e90a 843e fe74 133e c3a1 16be
000002b0: 2522 1cbd 85aa 3ebe 8885 5fbc 7720 88be
000002c0: 257c 573e e615 46be 27cf e3bb a1c4 243e
000002d0: b7b8 553d b4ad 663d 5073 71bd 95c1 f5bc
000002e0: d858 80bd 8c64 a63d e3d9 c53d 6faf 073e
000002f0: d8b4 ed3d 8d70 a0bd ee5d 43be ac92 0ebe
00000300: 2882 87bd 2c42 30be 0b9a 6a3e ab80 df3d
00000310: 438a 0fbd 3d10 24be e732 963c 428d c7bd
00000320: d883 9bbc 3c04 3f3e 6346 1f3c e8ea 91bd
00000330: 47df 43be 8677 17be bfb1 1bbe ecca 4cbe
00000340: 23a4 683e 37d1 133e f4f0 343e fdd9 423d
00000350: cfc7 293b cc83 b2bd 3b1b 7a3d 193e fb3b
00000360: e6dd 6bbe 2599 a73d d3ac 9abd 52cf 92bd
00000370: a680 3bbe 7515 13bc 0ff8 973e 35cb 273e
00000380: eea6 043d 69d1 d5bc 54b3 263d 50d3 cebd
00000390: b946 353d 546d aebb 8fe8 133e 6b8f cfbd
000003a0: aab4 d83d ccce 4e3e f9c3 f53d 1676 8d3e
000003b0: 2b82 523d 8a8e 12be e356 1b3d 3f94 4ebe
000003c0: 5296 393e 0a45 32bd 8b04 253d 52ef 95bd
000003d0: 7443 17bd 2412 73bd 4e42 3bbe c4c3 bfbc
000003e0: 2ed8 77bc 9d83 17be bc9a b9bd c22f d9bd
000003f0: e30e 2dbe cb58 833c 5afe bebd be99 ce3d

bias f4 [10]
0.10184634 -0.07679432 -0.0117558595 0.093478724 -0.11329898 -0.054676615 0.082139574 0.03252269
0.04433785 0.0038052744
00000000: d094 d03d 5746 9dbd a69b 40bc c671 bf3d
00000010: 4c09 e8bd 96f4 5fbd cb38 a83d 8336 053d
00000020: 9b9b 353d e961 793b
