MNIST/model/mnist_model_2024-03-07_14-19-40.pth (torch, 441559 bytes, 6 tensors)

weight f4 [128, 784]
0	0x3ba412db	0.0050071306
1	0x3ac67b0d	0.0015142873
2	0x3d08a69e	0.033362024
3	0xbc722711	-0.014779822
4	0x3cb01818	0.021495864
5	0x3bc3e9f1	0.0059788157
6	0xbd1114f3	-0.03542037
7	0xbcb52ee6	-0.02211709
8	0xbc7c4edd	-0.015399662
9	0x3c41c43c	0.011826571
10	0xbcbb997b	-0.022900334
11	0x3c323ff8	0.010879509
12	0x3c43011c	0.01190212
13	0x3b25b140	0.0025282651
14	0x3b87a95f	0.0041400637
15	0xbd09dc1c	-0.03365718
16	0x3b6ef0f2	0.0036459533
17	0x3c1032a9	0.008801141
18	0xbc7e6873	-0.015527832
19	0x3c6aa174	0.01432072
20	0x3ccbab08	0.024861827
21	0xbceb124e	-0.028695252
22	0xbd00709d	-0.031357396
23	0xbacb4807	-0.0015509137
24	0x3bcdb399	0.006277513
25	0xbcd6e172	-0.026230548
26	0x3bb6b329	0.005575557
27	0xb9b0e323	-0.00033738566
28	0xbc0d616b	-0.008629183
29	0x3cf0cf50	0.02939573
30	0x3cbeb512	0.0232797
31	0xbbdc543a	-0.006723908
32	0x3cf6b850	0.030117184
33	0x3cc4a5af	0.024004785
34	0xbd018463	-0.031620394
35	0x3c332d1e	0.01093605
36	0xbc95c8fa	-0.01828431
37	0x3cbbd3ec	0.0229282
38	0xbc2e2831	-0.0106297
39	0x3c9eb59a	0.019373704
40	0xba88bdb5	-0.0010432514
41	0xbc57ed89	-0.013179191
42	0x3c4af8d5	0.012388428
43	0xbcdff58e	-0.02733877
44	0xbca99b2d	-0.020703876
45	0xbaad1973	-0.0013206437
46	0xbc661468	-0.014042951
47	0xbc36386d	-0.011121851
48	0xbce2c0c1	-0.027679803
49	0xbc52b122	-0.012859615
50	0x3ceba970	0.028767318
51	0xbcb0e986	-0.021595728
52	0xbcdd7d9b	-0.027037432
53	0x3cb2a7ba	0.021808494
54	0x39da8a36	0.00041683175
55	0xbce383a0	-0.027772725
56	0x3b4d67cc	0.0031342385
57	0xbc741715	-0.014898081
58	0x3ca4e7c8	0.020130053
59	0xbc04c96d	-0.008104664
60	0xbcfcdeec	-0.030868016
61	0x3d0332f4	0.032031015
62	0xbcbb55df	-0.022868095
63	0x3bb5ae9a	0.005544496
64	0x3d086caf	0.033306774
65	0xbd1206b8	-0.03565094
66	0x3c93c724	0.018039294
67	0xbc514f77	-0.012775294
68	0xbc7429e6	-0.0149025675
69	0x3ce4b2c1	0.027917268
70	0xbca95ce3	-0.020674175
71	0xbc8abdf2	-0.016936276
72	0x3b00606c	0.0019588722
73	0x3cc447c3	0.02396
74	0x3c864233	0.016388988
75	0xbc7d7832	-0.015470551
76	0x3d0a06c5	0.033697862
77	0x3cc8cacd	0.024510765
78	0x3cd51018	0.02600865
79	0xbb7f9d18	-0.0039003547
80	0x3caf6d96	0.02141456
81	0x3b9d8be2	0.004807935
82	0x3cab0980	0.020878553
83	0xbcf3cfe9	-0.029762225
84	0xbbbb1f47	-0.0057105157
85	0x3c452fa0	0.0120352805
86	0x3c453e96	0.012038847
87	0x3cf38b8b	0.029729625
88	0x3c5c9ff8	0.013465874
89	0x3cd6da86	0.026227247
90	0xbccea4ac	-0.025225006
91	0xbcabb16a	-0.020958621
92	0xbd12d23f	-0.035845038
93	0xbd0f04e4	-0.034916773
94	0xbc28e5c0	-0.010308683
95	0x3b0eacb8	0.002177043
96	0x3bb68e9e	0.0055712005
97	0x3c8089a0	0.015690625
98	0xbc156a81	-0.009119631
99	0x3c0e9af2	0.008703934
100	0x3d14b8b0	0.036308944
101	0x3cdab513	0.026697671
102	0x3c9cf232	0.019158456
103	0x3d017ba1	0.031612042
104	0x3c83af36	0.016074758
105	0x3cf8db21	0.030377926
106	0x3ca3d6fb	0.019999972
107	0xbcaa8640	-0.020815969
108	0xbb6d0e28	-0.0036171768
109	0x3c50287d	0.012704966
110	0x3cf343cd	0.029695416
111	0x3c0ed894	0.008718628
112	0xbac956e4	-0.0015360978
113	0x3d0baabf	0.034098383
114	0x3cc992af	0.024606077
115	0xbce21f79	-0.027602898
116	0xbba8b8c6	-0.00514898
117	0x3c88cf4b	0.016700407
118	0xbce934e4	-0.028467603
119	0xbc980f08	-0.018561855
120	0x3c0c4159	0.008560502
121	0xbceda201	-0.029007914
122	0x3c6c265f	0.014413445
123	0x3ca5467f	0.020175217
124	0x3c81dfff	0.01585388
125	0xbb9c801c	-0.004776014
126	0x3c8d3add	0.017239982
127	0xbae3f5e0	-0.0017392002
128	0xbc060674	-0.0081802495
129	0x3cb16965	0.021656701
130	0xbcb33664	-0.021876521
131	0x3d0b0966	0.03394451
132	0x3baf2445	0.0053449
133	0x39a0c40e	0.0003066365
134	0x3cc6eaf0	0.024281949
135	0x3c9a4ce8	0.0188355
136	0xbc4e7ff3	-0.012603748
137	0x3cf7914c	0.03022065
138	0xbc836cea	-0.016043145
139	0xbcfcefe8	-0.030876115
140	0x3aede94d	0.0018151194
141	0x3ccf0bcc	0.02527418
142	0x3cea867d	0.028628582
143	0xbc82eba8	-0.01598151
144	0xbcf305ac	-0.02966579
145	0xbd024509	-0.03180412
146	0x3bcd67c5	0.006268474
147	0xbca1b32b	-0.019738754
148	0xbc33e0be	-0.010978876
149	0x3bd1af56	0.0063990755
150	0x3c991cae	0.018690433
151	0xbc75b071	-0.01499568
152	0x3cb56d52	0.022146855
153	0x3b92a6a3	0.004475431
154	0xbbbc7198	-0.005750846
155	0xbc4db533	-0.012555408
156	0x3d3640df	0.04449546
157	0x3d4660dd	0.04843222
158	0x3d08d3bd	0.033405054
159	0xbc3d6ca4	-0.0115615465
160	0xbc35534c	-0.011067223
161	0xbd070e90	-0.032972872
162	0xbc9d83bc	-0.019227855
163	0xbc971087	-0.018440498
164	0x3cc4d3ab	0.024026712
165	0xbd029d6f	-0.03188842
166	0xbbc6cbef	-0.0060667912
167	0xbbb2a4dc	-0.0054517817
168	0x3cb91a38	0.02259551
169	0xbcb63204	-0.022240646
170	0x3c13d492	0.009022849
171	0x3a5c1780	0.0008395836
172	0x3c6a771f	0.014310627
173	0x3d11f14a	0.0356305
174	0x3bd29007	0.006425861
175	0x3c18d4ac	0.009328049
176	0x3cdf6675	0.027270535
177	0xbbd108b8	-0.006379213
178	0x3ccc8232	0.024964426
179	0xbca65ef2	-0.020308945
180	0x3cbeaa3e	0.023274537
181	0xbc151302	-0.00909877
182	0xbc12dcf1	-0.008963809
183	0xbcc8145c	-0.02442377
184	0xbb44b655	-0.0030015905
185	0x3d2764a8	0.040867478
186	0x3c0da62d	0.008645576
187	0x3a6a1b67	0.0008930475
188	0xbbd6a96c	-0.0065509584
189	0x3b1bcde1	0.0023773836
190	0x3bc95d32	0.006145143
191	0xbb8d93b6	-0.004320587
192	0xbccba2aa	-0.024857838
193	0xbc5210ca	-0.012821386
194	0x3ab0e1f3	0.0013495072
195	0xbcad1f0c	-0.021132968
196	0xbcce66c7	-0.025195492
197	0x3c1af18a	0.009457001
198	0xbc4f0ef7	-0.012637845
199	0xbc9a7de8	-0.018858865
200	0x3b0a40c0	0.0021095723
201	0xbc7b30c3	-0.01533145
202	0x3cf4d3e5	0.029886195
203	0x3cf8d899	0.03037672
204	0x3b4275c8	0.0029672254
205	0xbd1dbd01	-0.038510326
206	0xbd054569	-0.032536898
207	0x3c8bab48	0.017049447
208	0xb929f7f7	-0.0001620947
209	0xbd164c7a	-0.036694027
210	0xbd043675	-0.032278497
211	0x3d034145	0.032044668
212	0x3ca0192f	0.019543258
213	0x3c9b3f22	0.018951003
214	0x3d06fbb7	0.032954898
215	0x3d300039	0.042968962
216	0xbcf25b88	-0.029584661
217	0xbcef8471	-0.029237958
218	0x3c61440a	0.013749132
219	0x3b24c54f	0.002514202
220	0x3c87c2a3	0.016572302
221	0xbcc05ed4	-0.023482718
222	0xbc7abd48	-0.015303917
223	0x3d034997	0.032052603
224	0x3d00cd90	0.03144604
225	0x3a1bb86e	0.0005940263
226	0x3d0d809f	0.03454649
227	0xbc69b141	-0.014263452
228	0x3c687a24	0.014189277
229	0x3cb2ecfe	0.021841522
230	0xbb8449f7	-0.0040371376
231	0xbc8e8b06	-0.017400276
232	0xbc8038e3	-0.015652126
233	0x3cb1c656	0.02170102
234	0xbc198b60	-0.0093716085
235	0xbc2b2d84	-0.0104478635
236	0xbd34bde7	-0.044126417
237	0xbca50cb8	-0.020147666
238	0xbd078130	-0.033082187
239	0x3c0644c0	0.008195102
240	0xbc7b0c57	-0.015322766
241	0x3d3b9365	0.045794863
242	0xbcb88ef5	-0.022529105
243	0x3d0f9546	0.035054468
244	0x3c3d7711	0.011564032
245	0x3ce4b073	0.027916169
246	0xbd1e3bae	-0.038631134
247	0xbd2064ec	-0.039158747
248	0xbc9b165f	-0.018931566
249	0x3cc9a967	0.02461691
250	0x3ca7496d	0.020420754
251	0x3c35b273	0.011089909
252	0x3ced9d77	0.02900575
253	0x3cd61943	0.026135093
254	0xb9cbc057	-0.00038862482
255	0xbcf918de	-0.030407365

bias f4 [128]
0	0xbb19eb48	-0.0023486186
1	0xbcf186bd	-0.029483194
2	0x3cd7dbb0	0.026349872
3	0x3cf375ae	0.0297192
4	0x3c86e672	0.016467307
5	0x3cad1040	0.021125913
6	0x3c02505d	0.00795373
7	0x3c2d0496	0.010560175
8	0xbb9cacf2	-0.004781359
9	0xbb4615f1	-0.003022548
10	0x3c8c2a36	0.017109971
11	0x3d0dd862	0.034630187
12	0xbce7f9d3	-0.028317368
13	0x3c8c1714	0.017100848
14	0x3c1e844a	0.009675095
15	0xbb9f98b8	-0.0048705004
16	0x3d04c218	0.032411665
17	0xbd0b60bd	-0.034027804
18	0x3a4d3190	0.0007827515
19	0xbcd5beb5	-0.026091913
20	0x3cd76da6	0.026297402
21	0xbbcc8039	-0.0062408713
22	0x3d01db3d	0.031703223
23	0x3c95b89b	0.018276503
24	0xbc8d0e31	-0.017218681
25	0x3c570e66	0.013125991
26	0xbb5a71f3	-0.003333208
27	0x3b9f1768	0.004855085
28	0x3ca060e9	0.01957746
29	0xbc067c4c	-0.008208346
30	0xbc4c724a	-0.0124784205
31	0x3c85e951	0.016346605
32	0xbb8c78f1	-0.0042868783
33	0xbce6f1be	-0.028191444
34	0x3d1757a7	0.036948826
35	0xbcd16c0c	-0.025564216
36	0xbc949f65	-0.018142411
37	0x3cb2b749	0.021815913
38	0xbc87bb0c	-0.016568683
39	0xbd0f676d	-0.035010744
40	0xb9b025f3	-0.0003359761
41	0x3b9226f1	0.0044602086
42	0xbd11b7df	-0.035575744
43	0x3cc80d08	0.024420276
44	0x3c9ceb1a	0.019155074
45	0xbb0d40c3	-0.0021553494
46	0xbc5185ea	-0.012788275
47	0x3cc2a677	0.023761017
48	0xbcd0ecbb	-0.025503507
49	0xbcbad5eb	-0.022807082
50	0x3d0f3331	0.03496093
51	0x3b87499b	0.0041286475
52	0xbd0681d6	-0.032838665
53	0x3c799a2f	0.015234514
54	0x3a9a6fd0	0.001178259
55	0x3c7218a2	0.014776381
56	0x3ce94deb	0.028479537
57	0xbb7d3656	-0.0038637123
58	0x3c79bd94	0.015242953
59	0x3ca44297	0.020051284
60	0x3d1d3ce0	0.038388133
61	0xbca2450a	-0.019808311
62	0xbcd09f85	-0.02546669
63	0xbd030dc4	-0.03199555
64	0x3bbe9afc	0.0058168154
65	0xbc48a838	-0.012247138
66	0x3cf7ee17	0.030264897
67	0xbc95a549	-0.01826729
68	0x3a874e00	0.0010322928
69	0x3c3f9114	0.011692304
70	0xbcb62bb0	-0.022237629
71	0x3d190b76	0.037364446
72	0x3c0f8d3a	0.008761698
73	0x3b2660ae	0.0025387215
74	0xbc8b8f2b	-0.017036041
75	0xbb00bea9	-0.0019644892
76	0x3c3a756a	0.011380533
77	0xbb5e711d	-0.0033941932
78	0xbc93f0ea	-0.018059213
79	0x3b8ccfb2	0.00429722
80	0x3c779e80	0.015113473
81	0x3c461e85	0.012092237
82	0x3be47b98	0.0069727413
83	0x3ce4d4c5	0.027933488
84	0xbc3c700b	-0.0115013225
85	0x3ca39711	0.019969495
86	0xbc1d3bdc	-0.009596791
87	0x3c71fa51	0.014769153
88	0x3b65ac88	0.0035045464
89	0x3d048b16	0.032359205
90	0x3d2b7867	0.04186287
91	0x3ce5eb90	0.028066427
92	0xbc4106a2	-0.011781367
93	0x3d1230ac	0.03569095
94	0x3cc5c81f	0.024143277
95	0xbd092eaf	-0.033491787
96	0x3ce59ac0	0.028027892
97	0xbcb94999	-0.022618102
98	0xbc2c20dc	-0.010505881
99	0xbcc9e138	-0.024643525
100	0xbd0cfce5	-0.034420867
101	0x3cdabed9	0.026702331
102	0x3d0c7843	0.034294378
103	0x3c117123	0.008877072
104	0xbc039e34	-0.008033324
105	0xbc781a81	-0.015143038
106	0x3ccc1396	0.024911683
107	0x3d13018e	0.035890155
108	0x3c60ee60	0.013728708
109	0xbcf75f00	-0.030196667
110	0xbb15ddae	-0.0022867727
111	0x3ccdf326	0.025140356
112	0xbcc938af	-0.024563162
113	0x3d0aef75	0.03391977
114	0x3cb1543e	0.021646615
115	0x3ace8558	0.0015756292
116	0xbc6bba1a	-0.014387632
117	0x3c2c82ed	0.010529262
118	0x3c8ac879	0.016941296
119	0xbc56be72	-0.013106929
120	0xbc89acee	-0.016806092
121	0xbbe10d8f	-0.0068680714
122	0x3ced5643	0.028971797
123	0x3c316794	0.010827918
124	0x3bd28943	0.0064250543
125	0x3b0be803	0.0021348007
126	0xbc6e68dc	-0.014551368
127	0xbc9819d5	-0.018567005

weight f4 [64, 128]
0	0xbccd8fe8	-0.025093034
1	0xbd1836d6	-0.03716167
2	0x3c297533	0.010342884
3	0xbd1b4bad	-0.037913967
4	0xbcba9455	-0.022775808
5	0x3cffe850	0.031238705
6	0xbd6a7d95	-0.05724867
7	0xbcdcd653	-0.026957667
8	0x3d96561e	0.07340644
9	0xbd7653ce	-0.060138516
10	0xbc8fed8b	-0.017569324
11	0xbbc3a8ee	-0.0059710657
12	0xbd0b3f03	-0.03399564
13	0x3c64dfd2	0.013969379
14	0xbdaa376d	-0.08311353
15	0xbd3b6b95	-0.045756895
16	0xbcd99234	-0.026558973
17	0x3c2a0540	0.010377228
18	0xbce54667	-0.027987672
19	0xbc7ba231	-0.015358494
20	0xbc54a84c	-0.012979578
21	0x3ce03f10	0.02737382
22	0xbcfd7915	-0.030941525
23	0xbda3be84	-0.07995322
24	0xbc340de2	-0.010989638
25	0xbdafea32	-0.08589591
26	0x3d7d2225	0.06180014
27	0x3d083f59	0.033263538
28	0x3d94e33f	0.07269906
29	0xbca66300	-0.020310879
30	0x3d93231e	0.071844324
31	0xbda0a1e9	-0.07843382
32	0x3cff7deb	0.031187972
33	0x3d8d4231	0.06897391
34	0xbcd389b2	-0.025822494
35	0x3d9b0943	0.07570126
36	0x3d4b18bf	0.049584147
37	0xbd89f362	-0.06735875
38	0xbd88dfe3	-0.06683328
39	0xbda79b32	-0.08183898
40	0x3d8dd886	0.06926064
41	0xbc531462	-0.012883278
42	0x3c9eb4dc	0.01937335
43	0xbc3e46ab	-0.011613528
44	0x3da251af	0.07925736
45	0xbbbead80	-0.0058190227
46	0x3c8672f3	0.016412234
47	0x3d57209d	0.052521337
48	0xbd2ba986	-0.041909717
49	0xbd3a1803	-0.045433056
50	0x3d81a764	0.06330755
51	0xbd5f8da1	-0.054578427
52	0xbd1d0e17	-0.038343515
53	0xbd823985	-0.06358627
54	0x3d945727	0.072431855
55	0xbc8b6f96	-0.017020982
56	0x3d3dbaa1	0.04632056
57	0x3cc87db4	0.024474002
58	0xbbc1b5c8	-0.0059115626
59	0x3d5b1094	0.053482607
60	0x3bd4689e	0.006482198
61	0xbca4662e	-0.020068254
62	0x3d39dc3d	0.04537605
63	0xbbfd0050	-0.0077209845
64	0xbd33a3cb	-0.043857377
65	0x3ce3f6c7	0.027827634
66	0xbd78bb7d	-0.060725678
67	0xbcaebb74	-0.021329619
68	0x3d8c9c23	0.06865718
69	0xbc0c5147	-0.0085643
70	0xbba41352	-0.005007186
71	0x3d1236fd	0.035696972
72	0x3d68eb49	0.05686501
73	0xbd8bb893	-0.06822314
74	0xbd74267e	-0.05960702
75	0xbcc5758e	-0.024103906
76	0xbda0543d	-0.07828567
77	0xbcc355be	-0.023844596
78	0xbd2659ba	-0.040612914
79	0x3c4b4360	0.0124062
80	0x3dac5238	0.084141195
81	0xbd43f374	-0.047839597
82	0xbd89b87d	-0.067246415
83	0x3cb974f0	0.022638768
84	0xbd2bf16c	-0.041978285
85	0xbcf61713	-0.0300403
86	0x3d292568	0.04129544
87	0x3d94196f	0.072314136
88	0xbd6684b3	-0.056278896
89	0xbcd31acf	-0.02576962
90	0x3c598b4e	0.013277842
91	0xbc6ebde5	-0.014571642
92	0xbd2198ab	-0.039452236
93	0xbb8e797c	-0.004347978
94	0x3d952c80	0.07283878
95	0x3ced6ca4	0.028982468
96	0x3d439058	0.04774508
97	0xbcdb6ec5	-0.026786217
98	0x3d3a7dbe	0.045530073
99	0x3d3d7e0b	0.046262782
100	0x3cc4ab19	0.024007367
101	0x3d566657	0.052343693
102	0x3da20a7a	0.079121545
103	0xbd847749	-0.06468064
104	0xbb928107	-0.0044709477
105	0x3bb897df	0.005633339
106	0xbda0cb93	-0.07851329
107	0xbd7d0c26	-0.061779164
108	0xbd16a8ff	-0.03678226
109	0xbd658792	-0.056037493
110	0x3d43f67a	0.04784248
111	0x3c9ca6e5	0.01912255
112	0x3aba2f64	0.0014204797
113	0x3d80585d	0.06266854
114	0xbd896f74	-0.06710711
115	0x3c226eb8	0.009914093
116	0xbd5d81df	-0.054078933
117	0xbc83713d	-0.016045207
118	0x3d01a849	0.03165463
119	0xbd95d899	-0.07316703
120	0xbd40821c	-0.046999082
121	0x3d74edeb	0.05979721
122	0xbd95a45d	-0.073067404
123	0xbb9ba5c7	-0.004749987
124	0x3da48de5	0.08034877
125	0xbdadcdbd	-0.08486507
126	0x3cb297b0	0.021800846
127	0xbd9b7764	-0.07591131
128	0x3a8acb10	0.0010589082
129	0x3daeafcb	0.085296236
130	0xbcb0002e	-0.02148446
131	0xbbd3f1bc	-0.006468026
132	0x3c88e413	0.016710317
133	0x3c13e090	0.009025708
134	0x3e015079	0.12628354
135	0xbc2f84fb	-0.010712857
136	0xbdaad2e9	-0.08341009
137	0x3d099726	0.033591412
138	0xbd10833c	-0.035281405
139	0x3dad3725	0.084577836
140	0xbb89f8c0	-0.0042105615
141	0xbdfea6a5	-0.12434129
142	0x3db392a9	0.087682076
143	0x3da3f799	0.0800621
144	0xbd546f0d	-0.05186372
145	0xbc0dab98	-0.008646868
146	0x3c895576	0.016764384
147	0xbe00bc61	-0.12571861
148	0xbddc2f12	-0.107511654
149	0x3dbf91a7	0.09353953
150	0x3e284c59	0.16435374
151	0xbacb14ea	-0.0015493904
152	0xbd926375	-0.07147876
153	0xbd87c9e2	-0.06630303
154	0xbe160fbb	-0.14654438
155	0xbda22bff	-0.07918548
156	0xbd0fecad	-0.03513782
157	0x3b99c5c6	0.004692766
158	0x3c0f3780	0.00874126
159	0xbcf2bce6	-0.02963109
160	0xbd78c3bd	-0.060733546
161	0xbcb051bc	-0.021523349
162	0x3c87320b	0.016503355
163	0x3dd86e99	0.1056797
164	0x3dc048ce	0.093888864
165	0xbd07b7a7	-0.03313413
166	0xbbf6cebc	-0.007531969
167	0xbd5a1145	-0.053239126
168	0x3e101232	0.14069441
169	0xbc2d0bfa	-0.0105619375
170	0xbbbcbccc	-0.005759811
171	0x3ba10b49	0.0049146754
172	0x3c6cbf47	0.014449901
173	0xbc66efac	-0.014095228
174	0xbd977a05	-0.0739632
175	0x3d84cd3a	0.06484456
176	0x3b72cdf4	0.0037049027
177	0x3d8b6b1b	0.06807538
178	0xbd496832	-0.049171634
179	0x3db9a8f7	0.090654306
180	0xbd3adc17	-0.04562005
181	0x3dcb0af3	0.09914198
182	0xbda71ddc	-0.08159992
183	0x3cf8b2cb	0.030358693
184	0xbdec451c	-0.11536619
185	0xbd9c7803	-0.07640078
186	0x3c16b1b0	0.009197637
187	0xbdca971d	-0.09892104
188	0xbdd322a3	-0.10309341
189	0x3c79c0bc	0.015243705
190	0xbd079564	-0.033101454
191	0x3d0f8e3a	0.035047747
192	0xbd94e691	-0.072705396
193	0x3dee9040	0.11648607
194	0x3dcbd16a	0.09952052
195	0x3df07929	0.117418595
196	0xbcd05355	-0.02543036
197	0x3cce6a9a	0.025197316
198	0xbd58ddd2	-0.05294592
199	0xbe055d10	-0.13023782
200	0x3e1750ba	0.14776888
201	0x3d71ce3d	0.059034575
202	0x3cd0ac3c	0.025472753
203	0xbdb3814e	-0.08764897
204	0x3dcee480	0.10102177
205	0xbd15c6fc	-0.03656672
206	0xbd159710	-0.036521018
207	0xbd8cfca6	-0.06884126
208	0x3da57748	0.08079392
209	0x3d4b26f7	0.049597707
210	0x3d2e0ab5	0.04249068
211	0x3d99deee	0.075132236
212	0x3df19ad9	0.11797113
213	0x3bdcde17	0.0067403424
214	0x3b9c854a	0.0047766315
215	0xbd885ee1	-0.06658722
216	0x3d6993cb	0.057025712
217	0x3c9659da	0.018353391
218	0x3d4f7b34	0.050654605
219	0x3cbca3d1	0.023027332
220	0xbd470602	-0.048589714
221	0xbd505f2b	-0.05087201
222	0x3b3a8b38	0.0028464328
223	0xbbfe6d73	-0.007764512
224	0x3d8423aa	0.06452115
225	0x3b595326	0.0033161133
226	0x3c24d590	0.010060683
227	0x3d1f8944	0.038949266
228	0x3e3154fa	0.17317572
229	0x3e13facd	0.14451142
230	0xbe0c0561	-0.13673927
231	0xbdd16630	-0.10224569
232	0x3dd20115	0.10254113
233	0x3d3b1875	0.04567762
234	0xbb65cf3a	-0.0035066144
235	0x3dfa5da5	0.122248925
236	0xbdffd5d7	-0.124919586
237	0x3e0602ff	0.1308708
238	0x3dae9fa2	0.08526541
239	0x3d90cc13	0.07070174
240	0x3d9c3e27	0.07629042
241	0xbdf892ed	-0.12137399
242	0xbc77485f	-0.015092938
243	0x3db027b4	0.08601323
244	0x3dc072c8	0.09396893
245	0x3dcdd9f5	0.10051338
246	0xbd8570ac	-0.06515631
247	0xbcaa0624	-0.020754881
248	0xbde4506f	-0.11148154
249	0xbcee80c9	-0.029114144
250	0xbd5b3b65	-0.05352344
251	0x3cdcf386	0.02697159
252	0xbd55c6ff	-0.05219173
253	0xbca89938	-0.020580873
254	0xbced2304	-0.02894736
255	0xbb126d55	-0.0022343

bias f4 [64]
0	0xbda34efd	-0.0797405
1	0xbd6db1d8	-0.058030933
2	0x3d6f6b1f	0.058451768
3	0x3c830e40	0.015998006
4	0x3cfcb8d2	0.030849848
5	0x3d598b62	0.05311144
6	0x3d53c846	0.051704668
7	0xbd088419	-0.033329103
8	0xbd7d1fbc	-0.061797842
9	0x3d793164	0.06083812
10	0x3db02ffe	0.08602904
11	0xba67708f	-0.0008828723
12	0x3d112ade	0.035441272
13	0x3d95261b	0.07282659
14	0xbd067d33	-0.032834243
15	0x3c055927	0.008138931
16	0x3d30f759	0.04320464
17	0x3dc71664	0.097210675
18	0x3d02e1b6	0.031953536
19	0x3c77e85d	0.015131083
20	0x3d20b358	0.039233536
21	0xb94526bb	-0.00018801812
22	0x3ca67469	0.02031918
23	0xbb06f9b4	-0.0020595612
24	0x3ccc79d0	0.024960428
25	0x3d72d564	0.059285536
26	0x3ce8b75f	0.02840775
27	0xbc89897a	-0.016789187
28	0xbc534ad0	-0.012896255
29	0x3d486396	0.048923098
30	0xbcdf25db	-0.02723973
31	0x3cece97e	0.028919932
32	0xbdb48f30	-0.08816373
33	0xbda3c13e	-0.079958424
34	0x3d46266e	0.048376493
35	0x3d9f9457	0.077919655
36	0xbb45edd1	-0.0030201564
37	0x3c743930	0.014906213
38	0xbd07092f	-0.032967743
39	0x3da8e1cf	0.082461946
40	0x3d34ab48	0.04410866
41	0xbce9da92	-0.028546605
42	0xbd19c1ca	-0.037538327
43	0x3ce91ba3	0.028455561
44	0xbd83202a	-0.06402619
45	0xbc60a128	-0.013710298
46	0x3c947b61	0.018125238
47	0x3cd99f3d	0.026565189
48	0xbc49f045	-0.012325351
49	0x3d4abb0c	0.049494788
50	0x3c85a668	0.0163147
51	0x3d9464a3	0.072457574
52	0xbb85977a	-0.0040768953
53	0x3cae158c	0.021250509
54	0xbd9dc2c3	-0.077031635
55	0xbd4ed818	-0.05049905
56	0xbd7fc0d8	-0.06243977
57	0xbcae4046	-0.021270882
58	0x3db47882	0.088120475
59	0x3d45084d	0.04810362
60	0x3d5035c5	0.05083253
61	0xbd7f9b1a	-0.062403776
62	0xbd8555c2	-0.06510498
63	0x3d082ea5	0.03324761

weight f4 [10, 64]
0	0x3d90c68a	0.07069118
1	0xbe6ab718	-0.22921407
2	0x3c57716f	0.013149603
3	0xbe7c45a3	-0.2463594
4	0x3dd3233a	0.10309453
5	0xbd9dd5d8	-0.07706803
6	0xbe671512	-0.22566631
7	0x3d81d501	0.063394554
8	0xbdb1c3b8	-0.086799085
9	0xbe7862cd	-0.2425644
10	0x3e87b588	0.26505685
11	0x3d2aaa38	0.04166624
12	0xbe0c304e	-0.13690302
13	0x3d6dd784	0.05806686
14	0xbea7ead4	-0.32796347
15	0x3baa1f84	0.0051917452
16	0x3dca7105	0.09884838
17	0xbdb07df7	-0.08617776
18	0xbcaf8bfb	-0.021429053
19	0x3e47ebb1	0.19523503
20	0xbe8825bb	-0.26591286
21	0x3e559e59	0.20861186
22	0xbe84d53b	-0.25943932
23	0xbdd5a876	-0.10432522
24	0x3d07a52d	0.03311651
25	0x3dc5213d	0.0962548
26	0x3dcac07b	0.09899994
27	0xbcfdcd2e	-0.030981626
28	0x3dfe39e6	0.12413387
29	0x3d208125	0.03918566
30	0x3eb4e94d	0.35334244
31	0x3dcb92a0	0.09940076
32	0xbdb57876	-0.08860867
33	0x3cbca648	0.023028508
34	0x3cc73b6b	0.024320325
35	0xbe03f7eb	-0.12887542
36	0xbc91f1a2	-0.017815415
37	0x3da988c0	0.08278036
38	0x3d809d86	0.06280045
39	0xbc870d5b	-0.01648586
40	0xbd8aeb74	-0.0678319
41	0x3e808605	0.2510225
42	0xbe2b748a	-0.16743675
43	0x3c2a0f5d	0.010379639
44	0xbd914185	-0.07092575
45	0x3dadfca5	0.08495454
46	0xbda440af	-0.0802015
47	0xbe4dcb49	-0.20097078
48	0x3dd0108e	0.101594076
49	0x3dd475c5	0.10374025
50	0xbddeba70	-0.10875404
51	0x3c2c9c54	0.010535318
52	0x3e319d6b	0.17345206
53	0xbd96b91e	-0.07359527
54	0xbda292a9	-0.079381295
55	0x3e950bdd	0.29110613
56	0xbeca946f	-0.3956637
57	0xbe5259dd	-0.20542093
58	0x3e80431b	0.25051197
59	0xbe10170a	-0.14071289
60	0x3c48ef94	0.012264151
61	0xbc9643d2	-0.018342886
62	0x3e883a0f	0.26606795
63	0x3e435977	0.19077097
64	0xbce29edf	-0.027663646
65	0xbe6693c3	-0.22517304
66	0xbdce78d9	-0.100816436
67	0x3e5a1990	0.21298814
68	0xbc8b0343	-0.016969329
69	0xbdc22b86	-0.09480958
70	0xbe3f5482	-0.18684581
71	0x3e07eaa1	0.13273098
72	0xbdcc11e9	-0.099643536
73	0xbd9c70ce	-0.07638703
74	0x3c83e262	0.016099159
75	0x3ca42651	0.020037802
76	0xbc90cdbb	-0.017676225
77	0x3d6e6a0b	0.0582066
78	0x3eaf5e06	0.34251422
79	0xbddd74a9	-0.10813267
80	0x3e18c9b4	0.14920694
81	0x3e62b57b	0.22139542
82	0x3d494d0c	0.049145743
83	0x3e45f91c	0.19333309
84	0x3ccab188	0.024742857
85	0xbe992100	-0.2990799
86	0x3e3a03a3	0.1816545
87	0x3e3a0957	0.18167625
88	0x3de7b281	0.11313344
89	0xbd8a5cf5	-0.067560114
90	0xbed74324	-0.42043412
91	0x3e967966	0.29389495
92	0x3e46142e	0.19343635
93	0xbe8a3011	-0.26989797
94	0xbd56fd2b	-0.052487534
95	0x3e18fbed	0.14939852
96	0xbb48fbaf	-0.0030667593
97	0xbd1f04d4	-0.038822964
98	0xbdf69609	-0.12040336
99	0xbd00f20e	-0.03148084
100	0x3dba9f9b	0.091124736
101	0xbd6c00f3	-0.057618093
102	0xbcfc7c94	-0.030821122
103	0xbd02253f	-0.031773802
104	0x3d0f41e7	0.03497496
105	0xbdc256ed	-0.09489236
106	0xbd93d68c	-0.07218656
107	0xbe395a1c	-0.1810078
108	0x3dccfaea	0.100087956
109	0xbe15b734	-0.14620668
110	0x3d9f7a99	0.077870555
111	0x3da60960	0.08107257
112	0x3de11c20	0.109916925
113	0x3d505c26	0.05086913
114	0xbe0788f1	-0.13235833
115	0xbbb2afd4	-0.0054530893
116	0xbe839536	-0.25699776
117	0xbde25c26	-0.11052732
118	0xbdd05277	-0.10171979
119	0xbdf386af	-0.11890923
120	0x3e559e14	0.20861083
121	0xbe75e75b	-0.24014036
122	0xbe59f4c2	-0.21284774
123	0xbd448c30	-0.047985256
124	0xbda62c82	-0.08113958
125	0x3d4a4b4f	0.049388226
126	0xbe9096e7	-0.2824013
127	0xbe6649d9	-0.22489108
128	0x3dd12a24	0.10213116
129	0xbd18a484	-0.03726627
130	0x3e243cf5	0.16038878
131	0xbe816976	-0.25275773
132	0x3dcdfc5c	0.10057899
133	0xbb84de02	-0.0040547857
134	0xbcba8ce8	-0.022772267
135	0x3bbcef37	0.0057658213
136	0x3da8ac04	0.082359344
137	0x3d9b9fe9	0.0759886
138	0x3d69429b	0.056948286
139	0xbdaae7f9	-0.083450265
140	0x3e5a28d7	0.21304642
141	0x3bbe6767	0.0058106664
142	0xbeb563c7	-0.35427687
143	0x3d82f656	0.06394641
144	0xbe2792c4	-0.1636458
145	0xbc70f976	-0.014707914
146	0xbe2251b4	-0.1585148
147	0x3d3a8de6	0.04554548
148	0xbe5d6990	-0.216223
149	0xbdf3471f	-0.118788
150	0x3e8e5748	0.27800965
151	0xbe6f4085	-0.23364456
152	0x3e538019	0.20654334
153	0x3e54c1ed	0.20777102
154	0xbea4dfc9	-0.32201985
155	0x3dd00fd9	0.10159273
156	0xbdeb0f8c	-0.11477575
157	0xbc606948	-0.013696976
158	0x3d61030b	0.054934543
159	0xbe534a91	-0.20633914
160	0x3dfa3ac1	0.12218238
161	0xbdfc4e4c	-0.123196214
162	0xbe44515e	-0.19171664
163	0x3e4271c8	0.18988717
164	0xbe429bdf	-0.19004773
165	0x3d81f389	0.06345279
166	0xbcfa8a16	-0.030583423
167	0x3de24584	0.11048415
168	0x3ced0d47	0.028936995
169	0x3ef7a643	0.48369035
170	0xbdbb1f1c	-0.09136793
171	0x3eaf00f6	0.3418042
172	0x3e37d1e6	0.17951164
173	0x3de600cb	0.1123062
174	0xbd3010b2	-0.042984672
175	0x3e7cccf3	0.24687557
176	0x3dfe323b	0.124119245
177	0xbdae731b	-0.085180484
178	0x3e218d17	0.15776478
179	0x3d24947b	0.040180665
180	0xbcedeee1	-0.02904457
181	0xbb5cd535	-0.0033696417
182	0x3cc85683	0.024455315
183	0x3d5dcb1f	0.05414879
184	0x3e163f8c	0.14672679
185	0x3e91d07b	0.2847937
186	0xbcdd9bc2	-0.02705181
187	0xbd92c80f	-0.071670644
188	0xbcfb43b2	-0.030671928
189	0x3e95a93b	0.29230675
190	0x3d668dd1	0.05628759
191	0x3e15db8b	0.1463453
192	0xbc83b9b4	-0.016079761
193	0x3e83c17b	0.2573355
194	0x3ba75e12	0.0051076496
195	0x3d360b95	0.04444464
196	0x3dede9c3	0.11616852
197	0xbca839a5	-0.0205353
198	0xbe0af0ca	-0.13568416
199	0xbc8009a2	-0.015629593
200	0xbdf13634	-0.117779166
201	0x3da90b03	0.082540534
202	0xbd6ef027	-0.058334496
203	0x3dfc0aa4	0.12306717
204	0xbddd9e27	-0.10821181
205	0x3d885cd9	0.06658334
206	0x3c0fa000	0.008766174
207	0x3de1663b	0.11005827
208	0xbd02e0fc	-0.031952843
209	0xbdb8f062	-0.090302244
210	0x3e09fd41	0.13475515
211	0x3cb83441	0.022485854
212	0x3d053fb3	0.03253145
213	0x3e36b917	0.17844044
214	0x3eaa090f	0.33210036
215	0x3e2740bb	0.16333286
216	0xbd344aa8	-0.04401651
217	0x3e4d7039	0.20062341
218	0xbe307fd0	-0.17236257
219	0xbe7db842	-0.2477732
220	0xbe893fdd	-0.26806536
221	0xbe420f57	-0.18951164
222	0xbe88fe37	-0.2675645
223	0x3c95e88c	0.018299364
224	0xbdfcd279	-0.12344832
225	0xbdb011b1	-0.08597124
226	0x3e47ed9f	0.19524239
227	0x3d4677d3	0.048454117
228	0x3d1cf1c8	0.038316518
229	0xbc4192f9	-0.011814826
230	0x3e8ceb50	0.2752328
231	0xbdbe35a2	-0.092875734
232	0xbe3634b5	-0.17793544
233	0x3ebae153	0.36500034
234	0xbe7ac130	-0.24487758
235	0xbde67d5d	-0.1125438
236	0x3e8aa267	0.27077028
237	0x3db31d25	0.08745793
238	0x3cba2f7c	0.02272772
239	0xbe1dcf17	-0.1541103
240	0xbda6236b	-0.08112224
241	0x3de725f8	0.11286539
242	0xbe14aca1	-0.14518978
243	0xbd3a821e	-0.045534246
244	0x3d79a647	0.06094959
245	0x3c2aeee8	0.010432936
246	0x3d350816	0.044197164
247	0x3e555485	0.20833023
248	0x3ea160cd	0.31519166
249	0xbe6a8685	-0.22902878
250	0x3d93274a	0.07185228
251	0x3e536e8e	0.20647642
252	0xbdaad6ce	-0.08341752
253	0xbd939bd7	-0.072074585
254	0xbe18b1a8	-0.1491152
255	0xbe166946	-0.14688596

bias f4 [10]
0	0x3cbfe653	0.023425257
1	0x3d8d6037	0.06903117
2	0x3e06a3b1	0.13148381
3	0x3bb61021	0.005556122
4	0x3d4d2995	0.050088484
5	0x3d5253a8	0.051349312
6	0x3e00d8c9	0.12582697
7	0xbd723c67	-0.059139635
8	0x3e1b88d9	0.15188922
9	0x3db71bfe	0.08940886
