MNIST/model/mnist_model_2024-03-06_17-10-31.pth (torch, 441559 bytes, 6 tensors)

weight f4 [128, 784]
000000 2d 02 52 bc 48 4c 0c bd c7 7a 6c 3a f1 6c 08 3c
       -0.012817902 -0.034252435 0.0009020981 0.008326755
000010 73 c2 90 bc e5 b5 2e bc 8c c6 0a bd a3 8d 9f 3c
       -0.017670846 -0.010663484 -0.033880755 0.019476717
000020 ca 20 8e ba 53 fd a7 bc 48 1b 25 ba cf 16 ff 3a
       -0.0010843512 -0.020506537 -0.0006298316 0.0019461754
000030 cb 7a 47 bc 17 26 11 3b 6b 60 6a bc 84 10 9b bb
       -0.012175272 0.0022147947 -0.014305214 -0.0047321934
000040 4a 2a 3a bd 60 5e 1d bd 23 c9 cc bc 24 b3 df 3b
       -0.045450486 -0.03842008 -0.024998253 0.006826775
000050 e0 20 c0 3a a3 85 b0 bc 90 cf 09 bd fd 73 16 bd
       0.0014658235 -0.021548098 -0.033645213 -0.03673171
000060 40 84 99 bc 71 86 6e bc 1b c4 15 bd 60 5f b5 3c
       -0.01873982 -0.0145584205 -0.036563974 0.022140205
000070 92 2d ae 3c 28 ee e8 bb 0a 15 03 bd 27 66 88 bc
       0.021261964 -0.0071084686 -0.032002486 -0.016650273
000080 c7 db 74 3c 10 cb 11 bd 5a 76 be 3c 74 e3 88 3b
       0.014944977 -0.035594046 0.023249794 0.004177505
000090 44 f9 1b bd 8d 83 8c 3c 73 0f 2d bd c6 6d 76 ba
       -0.038079515 0.017152572 -0.04225106 -0.0009400513
0000a0 e3 0a d0 bc 2b a7 6e b8 ae 42 8e 3c 12 20 22 bd
       -0.025395816 -5.689931e-05 0.01736578 -0.039581366
0000b0 ce 97 e4 bc eb 2f cb bb 6d b9 25 bd 06 95 2a bc
       -0.027904417 -0.0062007806 -0.04046004 -0.0104115065
0000c0 b9 7d e6 bb 00 bd cb bb b7 a2 90 bc bf 46 ef bc
       -0.0070340303 -0.006217599 -0.017655713 -0.029208539
0000d0 2c 2d 2d bd f4 b4 25 bd 17 8c 14 bd f3 a7 b2 bb
       -0.042279407 -0.040455773 -0.036266413 -0.00545215
0000e0 fe 4c d0 bc a2 60 ef 3a c2 c3 15 bd 7f f3 08 bd
       -0.025427338 0.0018263052 -0.036563642 -0.03343534
0000f0 ef ba fd bc 59 af ba 3b 75 fb 07 bd a8 9c 5f b8
       -0.030972926 0.0056971726 -0.033198792 -5.331324e-05
000100 63 44 e2 bb 74 b3 c0 bc 97 68 e6 3b 9e 7c 8f 3c
       -0.006905125 -0.02352307 0.007031511 0.017515477
000110 43 c7 e8 bc 44 b5 ab bb 6d bb a1 bc fb 78 1b bc
       -0.028415328 -0.0052401144 -0.019742692 -0.009489293
000120 77 19 81 3c 21 67 5b 3b c0 e2 10 3c 64 39 de bc
       0.015759213 0.0033478218 0.008843124 -0.027126975
000130 db 9a e9 3b f7 cd 0d bc ea 35 c8 3c 0c 68 ce bc
       0.007129056 -0.008655063 0.02443977 -0.025196098
000140 99 b8 b6 3c d0 05 2d bd a3 8b c4 bc db a7 be 3c
       0.02230482 -0.04224187 -0.023992365 0.0232734
000150 88 eb b1 3c 93 94 9e bc 5b 84 8e 3c 54 62 dc bc
       0.021718755 -0.019357955 0.017397096 -0.026902355
000160 24 1c 72 bc 1e 48 b9 3c e7 ef 5f 3b 7e d0 e6 bc
       -0.014777217 0.022617396 0.0034170093 -0.028175589
000170 12 30 43 3c 66 a3 aa 3c 14 2d ae 3c 20 1b 82 bc
       0.011913316 0.020829868 0.02126173 -0.015882075
000180 e4 3b 86 3c 4d a8 b2 3c e2 b0 c5 3c 2f f6 2b 3c
       0.01638598 0.021808768 0.024132196 0.010495706
000190 9e 5e 95 bb c3 a1 c0 bc a0 80 17 3c ff 01 cc bb
       -0.0045583984 -0.023514634 0.009246975 -0.006225824
0001a0 5b ad b8 3c 98 8e dc 3a c9 7f b8 3c 56 93 c3 bc
       0.0225436 0.0016827164 0.02252187 -0.023873966
0001b0 53 b2 e1 bc cc 2a 9f 3c 40 d9 34 bd af 4a eb bc
       -0.027550852 0.019429587 -0.0441525 -0.028722135
0001c0 ea 14 30 bd 5a d5 54 bc 39 08 ba 3c 1b 39 51 3b
       -0.042988695 -0.01299032 0.022708999 0.0031924907
0001d0 27 0c 67 3c 63 e3 e4 bc 9b 76 8f 3c a5 e3 22 bd
       0.014102018 -0.027940458 0.01751261 -0.03976788
0001e0 3d de 03 bd 07 57 f0 3c 6f b7 9e bb e6 a7 3a 3d
       -0.032194365 0.029338373 -0.0048436443 0.045570277
0001f0 14 a9 db 3c 1c 4f 0c 3d 28 d2 59 3c 9a 84 c4 bb
       0.026814021 0.034255132 0.013294734 -0.0059972527
000200 2a 92 bf 3b 96 b9 1c bb 39 f8 22 3c 0c 4c db bc
       0.0058462815 -0.0023914329 0.009946876 -0.02676966
000210 6c eb 1d bd 12 1e 11 bd 0d 18 bb bc 54 58 88 bc
       -0.038554594 -0.035429068 -0.022838617 -0.01664368
000220 ec c1 4b 3c 32 01 c7 3b ae 0f 90 3c 77 7e 2e 3c
       0.012436371 0.0060731405 0.017585602 0.010650269
000230 b1 74 1b bc a0 d7 06 bc a6 aa bf bc b7 04 0f bc
       -0.009488271 -0.00823012 -0.023396801 -0.008729151
000240 1d 64 ba bc a6 06 69 3b 0e 35 85 bc 79 c4 f0 3b
       -0.022752816 0.0035556941 -0.01626065 0.00734764
000250 2b 58 97 bc b5 2a 5a bc 64 35 7b 3c af 01 5f 3a
       -0.018474659 -0.013315846 0.015332554 0.0008507026
000260 26 4b 9f 3c 94 2c 41 3d 88 e1 f8 3c d8 e2 6b 3c
       0.019445013 0.047161654 0.03038098 0.0143973455
000270 3c 8f 67 bc b5 04 56 bc ee 5e ed bb 54 2d 82 3c
       -0.014133271 -0.013062646 -0.0072439825 0.015890755
000280 00 e8 94 bc fe a1 22 bd 80 af 58 bd 92 7c d8 bc
       -0.018177032 -0.03970527 -0.052901745 -0.026426587
000290 28 01 1d bd 52 f7 25 bc 5a d5 c9 bc b6 e5 b3 bc
       -0.03833118 -0.010129767 -0.024637867 -0.02196012
0002a0 14 bc 37 bd 8a 5f af 3c cf 8d 94 3c dd 0a 32 bd
       -0.0448571 0.021407861 0.018134026 -0.04346739
0002b0 3c 00 bc bc 0e ef c1 3c 3c 4e 7c bc 31 c5 d3 3b
       -0.02294933 0.02367356 -0.015399512 0.006462716
0002c0 3e 65 d8 ba a2 a3 86 3c 19 63 cb bb 28 5f d6 3c
       -0.0016509665 0.016435448 -0.0062068817 0.02616842
0002d0 86 bf 26 bc b7 31 c9 3c 81 c8 82 3d 17 ca 20 3c
       -0.010177499 0.024559839 0.06385899 0.009813807
0002e0 57 13 66 3d a9 d7 fa bb 8e 40 f4 3c 53 57 d5 bc
       0.056170788 -0.007655103 0.029815938 -0.026042616
0002f0 90 78 15 bd fb e2 1f bd 55 d5 34 bd 8e de 7d 3b
       -0.03649193 -0.039034825 -0.04414876 0.003873739
000300 5a 54 93 bb 9f 0c 03 3b 2f ef 85 3c 24 d9 35 bd
       -0.0044961395 0.0019996536 0.016349403 -0.044396535
000310 88 73 a5 3c 43 5d fe bc cf 57 28 3c 12 a6 cc bc
       0.020196691 -0.03105033 0.010274841 -0.024981532
000320 5e 15 b4 3c 99 b7 9f bc 44 24 d0 3b e5 cc fe bc
       0.021982845 -0.019496726 0.0063519794 -0.03110356
000330 ba 43 93 bc a4 b2 15 bb c6 e6 f9 3c a6 36 2f 3d
       -0.01797663 -0.0022842074 0.03050555 0.042776726
000340 c1 73 cc 3c a3 07 42 3c 5b 92 97 3d b8 07 94 3d
       0.02495754 0.011842641 0.07400962 0.07228035
000350 30 df 8b 3d 6e a6 88 3c 1a b8 12 bd f5 38 0d bc
       0.06829679 0.016680922 -0.035820104 -0.008619537
000360 89 d8 84 3b 64 0d 9f bc b9 01 76 bd 9f ba 4c bd
       0.0040541333 -0.019415565 -0.060060237 -0.049982663
000370 a1 69 c8 3a 97 ae 94 3b 5c e4 d0 3b 9d d4 b0 bc
       0.0015290269 0.0045374143 0.006374879 -0.021585757
000380 82 62 b5 ba b2 5e 2c bc 36 33 90 3c 76 6d ff bc
       -0.0013838562 -0.010520624 0.017602544 -0.031180125
000390 64 d6 a6 3c f2 77 c8 bc 0b 4d d3 3c 89 13 0f bd
       0.020365901 -0.024471257 0.025793573 -0.03493074
0003a0 9e 83 b3 ba 8c 78 12 bd 20 5b 49 bc d0 12 19 3d
       -0.0013695841 -0.035759494 -0.012289792 0.037371457
0003b0 44 06 18 3d fe 39 7f 3c 78 ab 99 3d 20 95 b7 3c
       0.03711535 0.015577791 0.07503408 0.022409976
0003c0 64 1d 52 3a 13 11 e2 3b 4a 57 b9 bc dd 1f 03 bd
       0.0008015244 0.006899008 -0.02262463 -0.03201281
0003d0 d9 ae 4a bc d8 89 2f bb 7b 7c de bb f8 ca e6 bc
       -0.0123707885 -0.0026785042 -0.0067897416 -0.028172955
0003e0 12 54 34 bd 6f f9 64 3c bc 38 af bc 91 1b c1 bc
       -0.04402549 0.013975485 -0.021389358 -0.023572715
0003f0 b1 21 a1 3c 4b d3 a1 3c 98 61 50 3c 51 be f7 3b
       0.019669386 0.019754073 0.012718581 0.0075605293

bias f4 [128]
000000 8c db 0e 3d 6f 1f 9f 3c 17 14 c3 bc 84 8d 87 3c
       0.034877345 0.019424168 -0.02381329 0.016546972
000010 48 13 46 bb c3 b6 22 3c 7f 71 69 3c 1a 99 d7 bc
       -0.0030223895 0.009931269 0.014248251 -0.026318122
000020 5f a0 ac 3c 1b ac 52 bb a3 88 d1 bc b2 7d ab bc
       0.021072565 -0.003214604 -0.025577849 -0.02093396
000030 07 47 39 bc 4b c2 ee bc ce 6e 18 bb fb 99 06 3d
       -0.011308438 -0.02914538 -0.0023259404 0.03286169
000040 69 f0 01 bd 44 0b 97 b9 84 83 0a bc ba bb 9d bc
       -0.031723414 -0.00028809358 -0.008454207 -0.019254554
000050 b3 1c 0a 3d cc 4e ea 3c 46 b5 b7 bb 97 5b 0c bd
       0.033718776 0.028602026 -0.0056063263 -0.034267034
000060 e0 3b 69 3c ba 5c 9b bc 0b d1 c8 bb cf 32 dc bc
       0.014235467 -0.018965114 -0.0061284355 -0.026879696
000070 79 f6 02 3d b9 a9 40 3c b5 93 b5 3c 8e 86 dd ba
       0.031973336 0.011759215 0.022165159 -0.0016901062
000080 28 16 bf bc 2c cc 0f bc 77 df aa 3c c2 78 e2 3c
       -0.023325995 -0.008776706 0.02085851 0.027645472
000090 1f 4f 60 bc 53 0c 02 3d 92 c0 08 bd e0 82 8e 3c
       -0.013690739 0.031750035 -0.033386774 0.01739639
0000a0 63 f7 f7 bc 16 c4 3a ba e1 44 d6 bc 1d d8 e0 3c
       -0.03026933 -0.0007124556 -0.02615589 0.0274468
0000b0 4b d8 8b 3b 00 ec 9c 3b 86 e9 90 3c d3 85 f7 3c
       0.0042677275 0.0047888756 0.017689478 0.03021518
0000c0 0a 20 d9 bc 93 e5 99 bc eb 2a ee bc 4d 75 d7 bc
       -0.026504535 -0.018786227 -0.0290732 -0.02630105
0000d0 6b c3 14 bc 05 84 a9 3c eb 81 28 3d fd 06 9a 3c
       -0.009079794 0.020692835 0.041139524 0.01880216
0000e0 cb 08 f6 bc bc 89 4e bb 22 98 ab 3c 64 52 d2 3c
       -0.03003349 -0.0031515202 0.020946566 0.025674053
0000f0 0f ab 09 3d 37 f0 95 bc cf 5c 3d 3c 27 6a 17 3c
       0.0336104 -0.01830302 0.011557772 0.009241617
000100 df be 1d 3d 25 de ce 3c 1c 9b c4 bc e1 60 c3 3c
       0.038512107 0.025252411 -0.023999743 0.023849906
000110 49 cd 49 3c 4a 32 e5 bb 0e eb 95 3c a2 c2 89 bc
       0.01231701 -0.0069945203 0.01830056 -0.016816441
000120 29 58 92 bc ec 1a d1 bc 1f 88 d6 bc eb f6 d2 3b
       -0.017864304 -0.025525533 -0.026187954 0.0064381263
000130 c7 c6 bc bc 26 4b 35 bc 0d 7b f2 bb 61 5c 39 3b
       -0.023044003 -0.01106528 -0.0073999227 0.0028283822
000140 bd 37 d1 bc fb ff d3 bc 94 82 e1 bc 68 dd 78 bc
       -0.025539273 -0.025878897 -0.027528085 -0.015189506
000150 ea 4f fd 3c fe d6 32 bc d7 f8 36 3c c0 6a a1 bc
       0.030921895 -0.010915516 0.0111677265 -0.019704223
000160 be 22 25 3c 65 58 ac 3c fd 0d 37 bc 1b c9 7d ba
       0.010079084 0.021038244 -0.011172769 -0.0009681151
000170 12 cd d3 3c c8 26 e2 3b 0e 74 b4 bc 3c 23 cf bc
       0.025854621 0.0069015957 -0.022027995 -0.025285356
000180 5b 82 fc 3c 2d 17 8b bc 7d 21 a9 3b 38 cc 8f 3c
       0.030823877 -0.016978825 0.005161463 0.017553434
000190 a7 c9 cf bc 91 be 8c bc 99 f2 c6 3c 01 4f dd bc
       -0.02536471 -0.017180713 0.024285601 -0.027015211
0001a0 5e 4e 47 3c b7 84 17 3c 58 26 8a 38 4e 04 ca bc
       0.01216468 0.00924795 6.587495e-05 -0.024660256
0001b0 c8 45 28 bc 41 84 2e 3c 69 9d af 3c 5d 58 c1 3b
       -0.010270543 0.010651649 0.021437364 0.0059004263
0001c0 c3 1a ef 3c 80 05 3e bb ba f6 d3 bc 8b 0c fa 3c
       0.029187566 -0.0028994977 -0.025874484 0.03052356
0001d0 a1 8a ac 3a 4a 89 35 bc b5 b1 f6 3c 74 d4 5d 3c
       0.0013163873 -0.011080096 0.030114034 0.013539422
0001e0 74 32 a1 3c 06 64 9a bc 90 72 11 3d 7a 8e 8e 3c
       0.019677378 -0.018846523 0.035509646 0.017401922
0001f0 1d 13 c1 3a 01 9a 9b 3c f9 58 33 3b 45 ec 96 bc
       0.0014730428 0.018994333 0.0027366264 -0.018423209

weight f4 [64, 128]
000000 c6 d4 4d bd ee b7 87 bd b5 e2 70 ba eb 7c 04 bd
       -0.050251745 -0.06626879 -0.00091890554 -0.032345694
000010 00 69 69 3c 30 a9 50 bd 6b 74 63 3d 5b 22 59 3d
       0.014246225 -0.0509426 0.055530947 0.05301128
000020 00 f8 20 bd 94 50 8f 3c e9 a4 8d bd 85 24 cf 3c
       -0.03929901 0.017494477 -0.0691622 0.025285969
000030 db cb 70 3c 5b b9 c4 3d d9 03 9c bb be dc 5e 3d
       0.01469704 0.09605666 -0.004761201 0.054409735
000040 c2 22 9a bd c6 25 85 3d d8 f2 93 bd 9e 7c 79 3d
       -0.07526161 0.06501345 -0.07224053 0.06090986
000050 d3 53 80 bd 31 25 a2 bd 4e 2b 36 bd 46 2e 83 bc
       -0.06265988 -0.0791725 -0.044474892 -0.016013276
000060 e1 90 8d bd d9 20 0a bc da 55 af bc 4e f7 60 bd
       -0.06912399 -0.008430683 -0.021403242 -0.054923348
000070 8a c8 d0 3d 44 2a cb 3d 74 a3 7a 3c 29 92 4b 3d
       0.101945 0.09920171 0.015297759 0.049699936
000080 87 12 ed 3c 10 dc 46 bd ee ea 49 bd 86 3f 4f 3d
       0.028939499 -0.04854971 -0.049296312 0.05059769
000090 df 73 a5 bd 85 de b3 bd f2 54 9b bc f5 54 27 3d
       -0.08078741 -0.087826766 -0.018961404 0.040852506
0000a0 09 25 25 ba 69 73 ac 3d ed d1 1d 3d 69 5c 96 3d
       -0.0006299769 0.0842045 0.03853028 0.073418446
0000b0 28 27 f2 bc 3c a1 b1 bd e5 4c 33 bb 79 65 91 bd
       -0.029559687 -0.08673331 -0.0027359065 -0.070994325
0000c0 8d 51 85 3d 6d 84 ac bc 78 f3 33 bd 72 90 b3 3d
       0.06509695 -0.02105924 -0.04393336 0.08767785
0000d0 66 7d 42 3d 62 70 a1 bd f9 d8 a5 bc 94 bf 7d 3d
       0.04748287 -0.078827634 -0.020245062 0.06195028
0000e0 de 74 55 bd 91 44 ae bd dc e2 1d bd 0c 19 8e bc
       -0.052113406 -0.08509172 -0.038546428 -0.017345928
0000f0 f6 b4 69 bd eb 8c 88 3c 6f db 99 3d 54 0d 1f bd
       -0.057057343 0.016668757 0.07512557 -0.03883107
000100 10 b6 c9 3d 77 35 5c ba ae 97 a4 3c 1c 31 a9 3c
       0.09849179 -0.0008400301 0.020091858 0.0206533
000110 a5 1d 80 bd bf 81 8f 3c df 3b ad bd fe ea 6b bd
       -0.06255654 0.017517922 -0.08458685 -0.057597153
000120 83 38 98 bd 67 f9 b3 3c 35 69 20 3c c4 1b d4 3c
       -0.07432654 0.02196951 0.009790708 0.025892146
000130 c9 8a be 3d b5 a9 36 bd 4f 1c 6f 3d 08 a2 cc 3c
       0.09303815 -0.04459544 0.058376607 0.024979606
000140 14 5b f9 bc 17 4d 62 bc 27 c7 96 bd 03 4e 36 3d
       -0.030438937 -0.013812325 -0.07362204 0.04450799
000150 02 25 a1 bc 41 c0 72 bd 7a e5 85 3d 7d 6a a4 3d
       -0.019670967 -0.05926538 0.0653791 0.080281235
000160 73 c9 eb 3d 82 66 a5 3d e5 d7 66 bd 89 b8 d3 3b
       0.11513033 0.080761924 -0.056358237 0.0064612073
000170 ee a0 a4 3d 53 c2 98 3b 16 43 9b bc 4c a0 0f bd
       0.080385074 0.004661837 -0.018952888 -0.03506498
000180 76 41 68 3c bf fe dc 3c b1 16 d0 3d c3 60 d5 3c
       0.014175763 0.026976941 0.10160578 0.026047116
000190 3b e8 08 bd 45 bc 2e bd 63 24 1d bd b5 de 89 ba
       -0.033424597 -0.042660017 -0.03836478 -0.0010518642
0001a0 06 d0 75 3d d4 6d b8 3d f4 33 24 bd 6d dd 09 bb
       0.06001284 0.09005323 -0.04008861 -0.002103652
0001b0 d4 e2 ca 3d dd 39 b9 ba 40 6c 0b 3b 1b 7f 7f bd
       0.09906545 -0.0014131624 0.0021274239 -0.062377077
0001c0 bf 7a 57 bd f1 f0 0f 3d c5 c4 0e bc 36 36 b4 3d
       -0.052607294 0.03514189 -0.008713906 0.087994024
0001d0 66 30 1d 3d 1e 28 91 bc 6b 82 ab 3d 4a e1 29 bd
       0.038376234 -0.017719325 0.08374485 -0.041474618
0001e0 f0 86 9b 3c c9 12 01 bd 4e 46 6c 3d 66 97 80 bc
       0.018985242 -0.031512056 0.057684235 -0.015697192
0001f0 28 4a a8 bc c1 6d 9c bc 84 46 1c bd 72 6b 23 3c
       -0.020543173 -0.019095303 -0.038153186 0.009974347
000200 0e 1d 48 3d 7e f1 f2 bd cb 16 02 3b d6 ff 12 3e
       0.048855834 -0.11862467 0.0019850011 0.14355406
000210 b7 ab fc 3c 59 51 a6 3d 1b 0c a5 bd e2 31 6c 3d
       0.030843599 0.081209846 -0.080589496 0.05766476
000220 5d 1f 92 bd 62 71 a8 bc 26 f6 ae 3c 65 cf fb bd
       -0.07134888 -0.020561878 0.021357607 -0.12295417
000230 21 39 46 bc 8b 1a 7d 3d 25 5d 93 3d 03 fc 85 bd
       -0.0120985815 0.06179289 0.071955 -0.06542208
000240 8e 6e 9d bd e2 fa 5f bd 8b eb da bd cd e0 b7 3d
       -0.07687102 -0.05468262 -0.106894575 0.08978424
000250 69 a8 94 3d 59 2b fb 3c 41 a7 a0 3d 9a 67 cb 3d
       0.07258684 0.030660318 0.07844401 0.0993187
000260 8e 3c 21 bd 19 da 24 bd 5a a2 b3 3d 50 7e b9 3d
       -0.03936439 -0.040247057 0.087712005 0.09057295
000270 ab 33 1b be f9 e4 14 bb 61 f4 06 bd ea 93 8a 3d
       -0.15156429 -0.0022719486 -0.0329479 0.067664936
000280 1d 08 fc 3d fb e2 9c 3d af 6a 7d 3d c1 99 e8 3d
       0.12306235 0.076604806 0.06186932 0.11357451
000290 49 2f c0 bc 09 b9 14 3d 2a 24 8c 3d fa 1d b5 3d
       -0.023460047 0.036309276 0.06842835 0.08843608
0002a0 b2 84 f9 3c 0a 98 ee bc 30 b5 91 bd 14 d2 6e 3d
       0.030458782 -0.029125232 -0.07114637 0.058305815
0002b0 2c 33 e5 bd 7f 74 65 3d a2 df 03 3c ee 26 96 3d
       -0.11191401 0.056019302 0.008048924 0.07331644
0002c0 d2 05 a2 3d 69 39 cd bd 44 03 9a bd d3 54 81 3c
       0.079112664 -0.10020716 -0.07520154 0.015787518
0002d0 e4 d7 e7 bd d8 cf 81 bd b0 e1 28 3d 8a fa 49 bd
       -0.11320475 -0.06338471 0.041230857 -0.0493112
0002e0 1c ea 4f 39 cb 8c 68 bd 70 6f 49 bd 0c 8d 58 3d
       0.00019828271 -0.056774896 -0.04917854 0.052868888
0002f0 30 8f 44 bd 66 3a ae 3b a7 82 8e bd 24 ef e7 3d
       -0.047988117 0.00531702 -0.06958514 0.11324909
000300 1b 38 7e 3d 2d 8d 85 3d 52 63 15 bc 91 08 e7 bc
       0.062065225 0.06521068 -0.009117918 -0.028202327
000310 4b 9c 38 bb d0 00 e2 3d 79 97 4a 3d ea d0 7b 3d
       -0.002816933 0.11035311 0.04946086 0.061478533
000320 77 cb 2c bd 14 ea 3d 3c 6a 46 7a 3b a9 56 f8 3b
       -0.042186227 0.011591453 0.0038188943 0.00757869
000330 c4 f4 eb 3d 44 cd 68 3d b1 57 d4 bc 20 7a 9e bd
       0.11521295 0.05683638 -0.02592072 -0.07738137
000340 be c1 98 3b 76 87 86 bc b3 40 8c bd e4 e2 62 bd
       0.0046617677 -0.016422015 -0.06848278 -0.05539216
000350 52 53 ab bd 4d 30 80 bd 1f 5d 40 3d f8 b0 60 bd
       -0.083655015 -0.06259213 0.046963807 -0.05485627
000360 98 f6 85 bc 79 03 58 bd ad 29 b5 bd 95 d4 a1 3d
       -0.016352937 -0.052737687 -0.0884584 0.07901875
000370 6d 46 a3 3d 1e 2e b0 3d 8a f9 8f 3d 68 d5 f0 3c
       0.07972417 0.08602546 0.07030018 0.029398635
000380 c9 76 92 3c 4d 0d 90 bd 9b 69 82 3d e5 21 4c 3d
       0.017878907 -0.07033787 0.06367799 0.04983701
000390 83 58 fb bc a7 9c 95 3d 75 25 b1 3c ef a1 43 bc
       -0.030681854 0.0730527 0.021624306 -0.011940463
0003a0 c1 a5 93 3c 86 4c fd 3d 56 4f 48 3d d1 e0 50 bd
       0.018023374 0.12368111 0.048903786 -0.05099565
0003b0 3b 9f 9f 3d 38 a0 06 bd 28 18 d0 3d 8b a1 68 3c
       0.07794043 -0.03286764 0.101608574 0.014198671
0003c0 ac 2b 2c bc 98 f8 06 3d 34 4d 91 bd 4c 82 de 3d
       -0.010508459 0.03295192 -0.070948035 0.10864696
0003d0 1d 56 6c 3d 40 92 35 3b 4e ab a6 bd 00 5e 6e 3d
       0.05769931 0.002770558 -0.081381425 0.058195114
0003e0 5c 83 73 3d a7 64 17 bd ca 56 9f 3d e8 6c 9f 3b
       0.059451446 -0.036961224 0.077802256 0.0048652776
0003f0 cd fb 5d 3d 25 0b cd 3c a7 10 ab bd 85 a7 56 3d
       0.054195214 0.025029728 -0.083527856 0.052405853

bias f4 [64]
000000 25 d5 7a bd 1e 5b a1 3d 90 9c d3 bc 94 ef 03 3d
       -0.061238427 0.07878707 -0.02583149 0.0322109
000010 df cf 7c 3d 8a de 99 bd f8 89 a2 3d 7f 5e 7a 3d
       0.06172168 -0.07513149 0.07936472 0.061125275
000020 03 17 7a 3d fe 19 3f 3d 77 52 a6 3d 7d 68 2d 3d
       0.061057102 0.046655647 0.08121198 0.042335976
000030 27 f4 9e bd 8d 43 2d bd b9 3d 40 bd b7 46 7d 3d
       -0.07761412 -0.04230075 -0.046933863 0.061835017
000040 96 ad 61 3d 3f 75 f1 bb 72 da 9a bd 84 2e 04 3d
       0.055097185 -0.007368713 -0.075611964 0.032270923
000050 ed f6 d0 3c 64 ce fb bc 32 ca 9c 3d 33 e3 b0 3d
       0.025508368 -0.030738063 0.07655753 0.08637085
000060 e8 45 68 3c af b0 8f 3d 58 b1 bc 3c a1 2a 6f 3d
       0.014176823 0.070161216 0.023033783 0.058390263
000070 1a 2a 10 bd da 0d 0c bd d7 75 cd 3c aa ff 25 3c
       -0.0351964 -0.034192897 0.025080604 0.010131756
000080 89 d6 c1 3d a2 fa 61 3d 0c 9f b2 3b 6c 16 c6 bc
       0.094647475 0.055170663 0.005451089 -0.024180613
000090 49 23 1d bd 8a ee 1c ba 16 94 40 3d 18 37 46 bd
       -0.03836373 -0.0005986473 0.047016226 -0.048392385
0000a0 48 52 bb 3c ed 30 6d bd 6b 0e e0 bc 2e 75 06 3d
       0.022866383 -0.057907987 -0.027350625 0.032826595
0000b0 3b 58 5b 3d be d3 4c bd 52 db 04 bc 9d e5 ae 3d
       0.05355094 -0.05000662 -0.008108931 0.08539889
0000c0 21 a1 a9 3d 52 87 5b 3b 4f 16 a3 3d 98 6e 39 bd
       0.08282686 0.0033497405 0.079632394 -0.045271486
0000d0 bd 79 91 3d d5 8c 65 bd e5 cb 49 3d e4 22 8a bd
       0.07103298 -0.05604251 0.049266715 -0.06744936
0000e0 e6 4a b8 3d f1 cd 94 3d 3e 36 7b 3d d7 00 ac bd
       0.08998661 0.07265843 0.061331026 -0.08398598
0000f0 d0 1a e6 bc c1 ca ad bc d6 11 94 3d e4 69 88 bd
       -0.028088957 -0.021214845 0.072299644 -0.06660822

weight f4 [10, 64]
000000 a5 88 4d bc 2f fc 27 bd 79 50 88 3d 45 b3 21 be
       -0.012544786 -0.041011985 0.06655974 -0.15791042
000010 a9 90 13 3e 3e fb c1 3d c7 a3 d6 bc 47 9f 20 3e
       0.14410652 0.09471749 -0.026201142 0.1568576
000020 18 95 6b be ae dc 04 3d 88 83 16 3e 63 e0 32 3d
       -0.23006094 0.03243702 0.14698613 0.043671023
000030 92 1e ab bd 39 15 d1 3b 2b 29 1e 3d b6 96 a5 bd
       -0.0835544 0.0063807038 0.03861348 -0.080853865
000040 82 96 21 bd 10 f0 2e 3e cb 39 4b 3b 8e 23 18 be
       -0.039450176 0.17083764 0.003100979 -0.14857313
000050 97 9a 6e 3e 65 04 c9 bc ae 3f 49 be b8 70 bc bc
       0.23301159 -0.024538228 -0.19653198 -0.023002967
000060 8f ee 39 3e c5 35 c0 bd 12 af f2 bd 71 37 b4 3e
       0.18157409 -0.09385256 -0.11849798 0.35198548
000070 13 96 c7 bc 30 18 2d 3b ca 4d 16 3d 3d eb 08 be
       -0.024363553 0.0026412122 0.03669528 -0.13370986
000080 ab 47 42 bd 6d d6 b6 bd 98 3f 73 3d 1c 96 7c be
       -0.04743163 -0.08927617 0.05938682 -0.24666637
000090 bc 81 95 bc c5 29 34 bd 55 94 9c bd 37 cf 53 be
       -0.018250339 -0.043985147 -0.076454796 -0.20684515
0000a0 4a b8 57 3d d0 15 56 be 36 69 8d bc 4c 81 80 3b
       0.052665986 -0.20906758 -0.017262083 0.0039216634
0000b0 7e ca 20 3d fc 49 2f 3d 6d e2 ac bd 1d b5 fb 3d
       0.03925561 0.042795166 -0.08441625 0.12290404
0000c0 e2 ab b6 3e 9a bc 9a bd 81 31 06 bc d2 73 a0 bd
       0.3567801 -0.07555504 -0.008190514 -0.07834591
0000d0 26 c6 42 be eb 0a 57 be 28 a8 88 3d 45 e6 ea 3c
       -0.190209 -0.21000259 0.06672698 0.028674254
0000e0 66 12 96 be b5 26 11 3d a3 ae 85 3d ad 4b b9 bc
       -0.29310912 0.035437305 0.0652745 -0.022619093
0000f0 40 1f 62 3e d1 9c 10 3e 43 d6 87 3e b6 13 80 3d
       0.22082233 0.1412232 0.26530656 0.062537596
000100 2b df 01 be 03 1d 0e 3e 86 42 a8 bd 60 00 84 3e
       -0.12682788 0.13878255 -0.08215813 0.25781536
000110 a0 3c 57 be 61 ab 08 be 3b 09 db bd 9c b0 8c bd
       -0.2101922 -0.13346626 -0.1069512 -0.06869623
000120 be 5e 15 3e 80 3b 3a 3e c0 ef 63 3e 5d 19 24 bd
       0.14586923 0.1818676 0.22259426 -0.04006325
000130 35 c2 a9 bc 76 70 48 3d 50 bb 1f 3d e0 ca 21 be
       -0.020722488 0.048935376 0.038996994 -0.15800047
000140 74 36 46 be a5 b1 ab 3d 93 d4 33 bd cc 4e 30 be
       -0.1935671 0.083834924 -0.0439039 -0.17217559
000150 33 9a bf 3d 8e 6c 0b 3e 08 b1 d9 bc cf 83 7b 3e
       0.09355583 0.13615629 -0.026573673 0.24562
000160 81 72 6e 3d 11 7a 2e bb 49 67 37 3e 51 89 74 be
       0.05821467 -0.002662305 0.17910494 -0.23880507
000170 b6 c8 bf 3d 81 7b 8f bd 90 c6 6b bd b3 aa 01 be
       0.093644544 -0.070059784 -0.05756241 -0.12662773
000180 c8 09 b6 bd 78 e1 e3 bd d6 b6 8a 3e 13 5a 17 be
       -0.088885844 -0.11126989 0.27092618 -0.14780454
000190 16 d7 9b bd 75 41 52 bd c5 eb 06 be 75 b8 6c 3e
       -0.07609384 -0.051331956 -0.13175876 0.2311724
0001a0 fc a2 7b bd 9c 30 22 be 93 46 24 be 9f 29 9e 3d
       -0.06143473 -0.15838856 -0.16042547 0.07722782
0001b0 9a 9d 30 bd 86 14 27 bd 77 8f 63 bd c5 7d 07 be
       -0.04311905 -0.040791057 -0.05555674 -0.13231571
0001c0 7f ba 27 be 0f 36 df 3d e2 25 1e be d0 a3 c4 bd
       -0.16379736 0.10898983 -0.15444139 -0.09601557
0001d0 05 7d 5e 3e ef d0 84 3e 6b 72 1c 3e 4c b8 ae bc
       0.21727379 0.25940654 0.15278022 -0.021328114
0001e0 65 9b 8c bd f1 f3 ed ba 9f 2a 35 be 14 03 c5 bc
       -0.06865577 -0.0018154365 -0.1769204 -0.02404932
0001f0 f5 e4 37 be 7e c7 6f be 3c 61 4e be d9 10 f0 bd
       -0.17958434 -0.23415944 -0.2015428 -0.117219634
000200 61 3a c2 3d f4 68 81 be b9 cf 4b bd 13 56 ba 3d
       0.09483791 -0.25275385 -0.049758647 0.090984486
000210 94 88 ec bd 4f 6e 8a 3d fb 2e c8 3c 6d d4 80 3e
       -0.11549488 0.06759321 0.024436465 0.25162068
000220 75 6d 92 3d 86 26 6b be 77 c5 c2 3d 05 d4 41 bd
       0.071497835 -0.22963914 0.0951032 -0.04732134
000230 0e 4f ea bd 40 73 a6 3c 40 8f 47 bd 32 0c 25 3d
       -0.1144086 0.020318627 -0.0487206 0.040294833
000240 8d c5 10 be a0 09 8b bd 56 4b f4 3c 49 63 9d bd
       -0.1413786 -0.06788945 0.02982108 -0.07684953
000250 02 3a 2a 3e 16 a2 ae 3d 9d f8 f9 bd e4 09 cf 3c
       0.1662369 0.08527009 -0.12205622 0.02527327
000260 6e 0d f3 bd d2 a3 77 3d d0 49 c4 3d b9 8e 00 3e
       -0.11867796 0.060458966 0.09584391 0.12554444
000270 9d da b7 3d ab b6 b1 3d 16 21 5d bd 68 08 2d ba
       0.08977244 0.08677419 -0.05398663 -0.0006600679
000280 a9 df 0f 3e 46 31 75 3e d9 62 84 bb 9b 1e 67 be
       0.14050163 0.23944578 -0.004040104 -0.22570269
000290 4d 91 69 3e 4a 51 9f 3e 9a b0 36 3e 5e 00 08 be
       0.22809334 0.31116706 0.17840806 -0.1328139
0002a0 d6 72 e0 bd 17 35 ca 3d 07 fe 69 bd 8f c6 0f bc
       -0.10959403 0.09873407 -0.057127025 -0.008775367
0002b0 c3 54 e5 3d f9 4b 20 3c 75 72 15 bc 77 6f 8c be
       0.11197808 0.009783738 -0.009121527 -0.2742879
0002c0 8e aa fa bd 23 84 6c bd bb 62 25 3e 10 7a e3 3d
       -0.12239562 -0.057743203 0.16150944 0.11107266
0002d0 54 93 5a 3e f7 26 84 3d 38 20 a3 bc f7 e4 7d 3d
       0.21345264 0.064527445 -0.019912824 0.061985936
0002e0 1b d5 ac bd a2 27 94 3d 04 12 73 3b f4 42 69 3d
       -0.08439084 0.07234122 0.0037089596 0.056948617
0002f0 3e 6d 24 3e 8b ee d5 3d 09 0c 19 3e d7 c7 3f 3e
       0.16057298 0.10445889 0.14945997 0.18728577
000300 03 46 93 bd 5c 70 6e be ff 9e d2 3d 9f 1f 78 bd
       -0.07191088 -0.23285049 0.10284232 -0.06057703
000310 b7 da 10 be 22 54 68 3e 7b 62 f4 3a 97 46 18 3e
       -0.14145933 0.22688344 0.0018645072 0.14870678
000320 50 c7 47 be cb 31 ff bd c5 b3 51 3e cc 0b 17 bd
       -0.19509625 -0.12460669 0.20478733 -0.036876485
000330 a4 1b e7 bd dc 8a 8d 3d 77 74 23 bd 05 55 5d 3b
       -0.11284569 0.06911251 -0.03990599 0.00337726
000340 5a 82 a1 3e 19 1d 8d bd b6 a4 d4 bd 91 7b 25 3d
       0.31544763 -0.068903156 -0.103829786 0.040401045
000350 27 31 80 3d 27 b0 f8 bd 5a 46 4c 3e 38 e8 2e 3e
       0.06259375 -0.121429734 0.19948712 0.17080772
000360 67 c6 1a 3e 88 e1 4a 3b 89 e4 55 be 52 b3 36 be
       0.15114747 0.003095718 -0.2088796 -0.17841843
000370 8d d5 a6 bd 9c 17 b4 bd cb 2c a2 3c a7 b6 02 be
       -0.081462 -0.08793566 0.01979675 -0.12764989
000380 34 6f 3c be 19 d7 2d 3e 7a c3 5b 3e 27 c6 09 3d
       -0.18401796 0.16976584 0.21461287 0.03363624
000390 f7 57 02 3e a5 c0 0d be 8c 69 3d 3e 54 c0 d2 3d
       0.12728868 -0.1384302 0.18497294 0.1029059
0003a0 66 52 2d 3c 62 68 03 3e 3c 95 83 bd b0 ec 16 3e
       0.010578727 0.12832788 -0.064249486 0.14738727
0003b0 cd 28 2e 3d af 7c 46 be fb fd a0 bc 4a d6 5f be
       0.04251938 -0.193835 -0.019652357 -0.21859089
0003c0 eb 7b 99 bd 53 00 54 3c 2d 26 00 bd c3 fa 83 bd
       -0.074943386 0.01293953 -0.031286407 -0.064443134
0003d0 3a 3d 04 be 4f 37 35 be a7 02 86 3e 66 93 21 bc
       -0.12913981 -0.1769688 0.261739 -0.009861803
0003e0 77 bd d1 3d d6 7e 04 3e 37 66 f0 3d 18 eb f5 bb
       0.10241216 0.12939009 0.11738246 -0.007504832
0003f0 23 1e f5 bb de 75 07 be 92 e1 10 3e c4 9f 28 3c
       -0.007480399 -0.13228557 0.14148548 0.010291997

bias f4 [10]
000000 a1 20 c7 bd 73 04 d7 3d fa 1f df 3a b9 4f dd 3d
       -0.0972302 0.104988955 0.001702308 0.108062215
000010 b8 da 0f 3d a0 a4 a0 3c 6b 51 78 bd 10 51 46 3d
       0.035120696 0.01960975 -0.06062452 0.04841715
000020 41 bf 8d bd da db 03 be
       -0.069212444 -0.12876835
