MNIST/model/mnist_model_2024-03-06_17-15-05.pth (torch, 441559 bytes, 6 tensors)

weight f4 [128, 784]
00000000: d311 fc3b 482e a43c 753d 1a3c 18b8 f8bb
00000010: e068 ad3c 4b12 f9bc fa8d 993c 1697 d83c
00000020: e53b 70bc 5870 20bb be5b ad3c 6533 71bc
00000030: 8c04 1bbd 4390 9e3c 30db 58bc 3130 68bb
00000040: d1dd 3a3c c2ab 8f3c 2ded 19bd 018c 1bbc
00000050: 7d46 7c3c a277 1abd ceda 023d 94ad c3bc
00000060: 746d bf3c a92a 1dbd bd85 f43b 8b94 98bb
00000070: 3195 1a3c e4b3 d9bc ade0 a5bc 6a10 d73c
00000080: 9234 43bc 06eb 1bbd ece8 16bd 9a1c eb3b
00000090: 72d3 e73c 4b42 08bb e5fb 4d3c 9324 93b9
000000a0: b0ae 8fbb bfda e9bb b8fd 713c 3783 80bb
000000b0: 9cf9 033d 9ea5 eabc 3632 b03c 6d07 19bd
000000c0: 7864 9c3c e808 fe3c 926b b43b fc11 953c
000000d0: da91 74bb d08e e8bc 8154 323c 2ae1 20bb
000000e0: 29ff 0fbd a4ef d8bc 2bdc e53c e5fb 86bc
000000f0: c748 af3a bcee 743c 3891 743c 0a00 f9bb
00000100: 9829 513c 2cb5 fcbc 8028 f0bc fac8 8cbc
00000110: ca8d 8d36 a291 f53b a141 aabc ee9d f73c
00000120: 1f45 0b3b 24af 15bd 9b8b 4dbc e230 033c
00000130: 62d8 38bc 7219 393c 86a7 bf3b 995a 90bc
00000140: c9b3 03bd 9287 9dbc bae4 98bc 1fe3 58bc
00000150: 72fb c7bc 0310 fc3c e972 973c 4387 18b9
00000160: 410c 953c d885 d3bc 1753 fb3c 87fc c7bc
00000170: 6b9f b03c ef0b b03c 62af 24bd 821a cd3c
00000180: 5946 113c 8428 cb3c 03f5 91bc eb6e 033c
00000190: 5819 ebbc e2dd debc 634e bbbc e09c f93c
000001a0: e0da c33c bbfc 903c d387 06bc 42dc 21bc
000001b0: b690 f5bb 1f95 7abc 0843 abbc 4014 12bd
000001c0: 1c8d 6c3c fbc6 0b3c b8e2 f43c a967 753c
000001d0: ddae 03bd 8496 26bc b443 8f3a 8057 dabb
000001e0: 2dd4 01bc 178f a7bc 10f4 e6bc 90b5 acbc
000001f0: 0f06 d4bc 41b7 fd3b 3de6 8abb 5cfb bdbc
00000200: cff0 a9bc 3dfe 42bc b146 00bd 2e41 303b
00000210: f923 ddbc fd04 f2bb fc3f a83c d1cb 03bd
00000220: 99e5 c2bc 022a 363c 9147 e3bc 3e88 1dbc
00000230: 8223 683b 6897 c2bc 69c7 ba3b 031f 323b
00000240: fe4d 523c e905 d0bc b969 e5ba dc37 f63b
00000250: b418 37bd 3341 f7bc 6e2e 94ba f814 2bbd
00000260: d75a 11bd 2919 bb3c 3975 453b 7a65 f3bc
00000270: 1871 8cbc 786f f33b aed4 1ebc 7420 c83c
00000280: 0886 783b 80dd 4c3c e602 e0bb e6a2 06bd
00000290: a84f f33b 6dc5 d0bc bc99 f83b b63d e33b
000002a0: d924 433c ec67 e3bc ee2f cfbc 2f95 34ba
000002b0: fe31 983c 4e4c 2c3c 98b8 cf3a d90e dcba
000002c0: 6b5f b7bc 76f5 d6bb 988c c6bc 2d3d 87bc
000002d0: afca c53c 7eec d33b 08f1 92bc 0946 48bc
000002e0: ab84 0e3d 60ef 0abc a237 efbc b2a1 e4ba
000002f0: 0cb1 e33c 887a 8b3c 1ef9 4c3c 5d0a 933c
00000300: 3c87 a6bc 55cc 053d 69b2 acbc d183 fcbc
00000310: 0764 6c39 a17c 07bd e813 f13c 563d c8bc
00000320: 5027 ecbc 1fca 2cbc ea91 0dbd 778b bcbc
00000330: 2eca 09bd 62f0 e6bc 6b0a 923b 9365 cfbc
00000340: 396c 983c 8885 04bd e55a 6d3c 194b 2ebc
00000350: a372 db3c 1c05 d73b 2db9 c8bc ad50 2ebd
00000360: 4238 c0bb 321f d0bb fe8f 54bc 33b4 b8bc
00000370: 7aea 46ba 958f c93c aa7b c83c 908e 883c
00000380: 153a e1bb 6fc2 adbc f593 94bc 2f70 a83c
00000390: 1df3 6c3c 307e 27bd c1e5 4ebd 0b91 ae3c
000003a0: 75b0 663c d92a d53c 8f75 11bd 84b6 043d
000003b0: d009 983c faba a53c 0173 d03c 1ce4 ee3b
000003c0: 3adf 453b 862c 1bbd 9c73 923c f18e 88bc
000003d0: a1f7 ebba b332 efbb 97c6 8cba 59db a5bc
000003e0: 18ff 5ebb 3ea1 55bc 2b83 89bc 7e53 cd3c
000003f0: 79a6 e13c 9b9a ab3c 6fb6 ccba ee11 d4bc
0.0076925545 0.0200416 0.009414067 -0.007590305 0.021168172 -0.03040423 0.018744458 0.02643923
-0.0146627175 -0.0024481025 0.02116191 -0.014721726 -0.037846133 0.019355899 -0.013235852 -0.0035429115
0.011405424 0.017537955 -0.037579704 -0.009493829 0.015397665 -0.037711747 0.03194695 -0.02388648
0.023367621 -0.038370762 0.007462232 -0.0046563796 0.009434984 -0.026575036 -0.020248735 0.026252944
-0.011914389 -0.038065933 -0.036843225 0.0071750404 0.028299067 -0.0020791467 0.012572263 -0.00028065275
-0.004384838 -0.0071366723 0.014769964 -0.003921892 0.032220468 -0.028643426 0.021508317 -0.037360597
0.019090876 0.031010106 0.0055059874 0.018197052 -0.003731838 -0.02838841 0.010884405 -0.002454827
-0.03515545 -0.026481457 0.028059086 -0.016477535 0.001337313 0.014949497 0.014927201 -0.0075988816
0.012766264 -0.030848108 -0.029316187 -0.017185677 4.218634e-06 0.0074941674 -0.020783247 0.030226674
0.0021250916 -0.03654398 -0.012545492 0.00800726 -0.011282058 0.011297571 0.005848828 -0.017621325
-0.03215388 -0.019229684 -0.018663753 -0.013237744 -0.02441189 0.030769354 0.01848741 -0.00014546239
0.01819432 -0.025820658 0.030679269 -0.024412407 0.021560391 0.021490065 -0.04020632 0.025037054
0.00886687 0.024799593 -0.017817026 0.00802205 -0.028698608 -0.027205411 -0.022864526 0.030470312
0.023908079 0.017698636 -0.008211094 -0.009879174 -0.0074940575 -0.015294342 -0.020905986 -0.035663843
0.01443794 0.008531327 0.029893264 0.014978328 -0.032149184 -0.010167722 0.0010930211 -0.006663263
-0.007924122 -0.020453973 -0.02819255 -0.02108267 -0.025881795 0.007742793 -0.0042388723 -0.023191147
-0.02074471 -0.011901435 -0.031317417 0.002689432 -0.026994692 -0.0073858486 0.020538323 -0.032176796
-0.023791121 0.011118414 -0.027744086 -0.009615002 0.0035421555 -0.023753837 0.005700041 0.002717913
0.012835978 -0.025393443 -0.0017502821 0.007513983 -0.044701293 -0.030182457 -0.0011305341 -0.041768044
-0.035487022 0.022839146 0.0030129685 -0.029711474 -0.017143771 0.0074290596 -0.0096942615 0.024429537
0.0037921686 0.012503982 -0.006836283 -0.032870196 0.0074252672 -0.025484765 0.007586686 0.0069348468
0.011910641 -0.027759515 -0.02529141 -0.0006888685 0.018578526 0.010516239 0.001584786 -0.0016789093
-0.022384366 -0.006560023 -0.024236962 -0.016508663 0.024144499 0.006467401 -0.017937198 -0.012223729
0.03479449 -0.008479923 -0.029201332 -0.0017443208 0.027794383 0.0170262 0.012510566 0.017949278
-0.020328157 0.03266557 -0.021081166 -0.030824574 0.00022543977 -0.03307784 0.029428437 -0.02444331
-0.02882734 -0.010546236 -0.034562983 -0.02301572 -0.03364008 -0.028190795 0.0044568083 -0.025316989
0.018606292 -0.032353908 0.014487003 -0.010638022 0.026788061 0.0065618884 -0.024502361 -0.042557407
-0.0058660815 -0.006351375 -0.012973784 -0.022546863 -0.00075880403 0.024604598 0.02447303 0.016669542
-0.006873379 -0.021210877 -0.018136958 0.020561306 0.01446226 -0.040891826 -0.05051208 0.021309396
0.014080157 0.026021408 -0.035512503 0.032400623 0.018559366 0.020230759 0.025445463 0.0072903764
0.0030192868 -0.037884258 0.017877392 -0.016669722 -0.0018002876 -0.007299745 -0.0010740337 -0.020246195
-0.003402656 -0.013038931 -0.016786179 0.025064226 0.0275452 0.020947745 -0.0015618334 -0.025887456

bias f4 [128]
00000000: 65ca ba3c d929 63bc dfd7 e439 2b62 c4bc
00000010: 8fac 9dbc f224 873c 9f92 7abc 6d2c 68bb
00000020: 468c 7fbb cce9 efbb 73d4 ecbc 48d3 1e3d
00000030: 9b9d 113d df1f 5e3c aee1 edbc af6c 11bc
00000040: 1e1a 8f3c 435e e6bc 74d1 ad3c 08a0 9fbb
00000050: 5d37 0d3d 088e 00bc cfaa d53c 9abb 12bb
00000060: bf2b 22bc 2f4e bb3c b90e 87bb 05a4 913c
00000070: 806d 013d b439 a83c 6523 36bc 05fc 11bd
00000080: f514 abb9 ee0e 99bc 8523 30bc a87f 5fbc
00000090: 8967 d8bb a70b 1e3d 5e89 c33c 3c8e 09bd
000000a0: e615 753a 54f7 c83c 90be 72bb 00df b9bb
000000b0: aa2f 5d3c bf4c 48bc 1f1c 3bbb 04b2 ee3c
000000c0: 9821 09bd a47f 813c c15a 93b8 5055 9c3a
000000d0: 4780 aabc 516e b0bc fb05 c2bc ed45 bc3c
000000e0: 7a62 d73c 661b 5abc 42b0 903c a7ba edbc
000000f0: b0a3 b03c 8864 f0bc 0026 d43b bb15 17bb
00000100: d083 f53c f59c 3e3b 15fa 093d 2ccf b03b
00000110: 7672 e9bc ec6d 083d 6407 abbc f0aa 043d
00000120: 6af0 d2bc 99e2 9c3b 68b2 893c d3b2 b7bc
00000130: 8ca1 113a e81a f8bb 91fc 8e3c 6cec 89bc
00000140: 94cf cd3c da9e 4b3c 3be2 183d 0b50 25bc
00000150: c61d 9539 e879 bb3c a030 37bb 65c2 333a
00000160: 4a6d e5bb 7338 033d 9463 0bbc ef05 5d3b
00000170: 67ff b23c 3844 06bd da92 043b 660a e1bb
00000180: 5887 3a3c 75b3 b33c 60c7 8f3b dd46 143c
00000190: 8924 8abc 9711 8f3c 34c1 21bb b82b d7bc
000001a0: 9d88 d5bb 1653 38bc 5ad2 d53c d32d bcbc
000001b0: 4313 d93c 0eee 0dbb 8c3a 183b 655d 293b
000001c0: d345 ad3c 880f f0bc 777d 073d 0a42 66bb
000001d0: 9437 f93c 5818 f43b d271 11bd cd7d 8c3c
000001e0: 5b22 47bc 5617 943c 9c94 dc3c ad10 073d
000001f0: beb9 fabb 1330 adbc 9f2a 0d3d 929f 883c
0.022801587 -0.013864958 0.00043648385 -0.023972591 -0.019247321 0.01649711 -0.015293746 -0.003542687
-0.0038993522 -0.007321572 -0.028909897 0.038775712 0.035550695 0.013557403 -0.029038277 -0.00887601
0.017468508 -0.02812112 0.02121804 -0.004871372 0.034476627 -0.007846363 0.026082424 -0.0022389651
-0.009898125 0.02286443 -0.004121628 0.017778406 0.031598568 0.020535327 -0.011116837 -0.035640735
-0.00032631276 -0.018683877 -0.010750656 -0.013641275 -0.006604139 0.03858533 0.023869213 -0.03358291
0.00093492714 0.024531998 -0.0037039854 -0.0056723356 0.0135001335 -0.012225329 -0.0028550697 0.029137619
-0.033479303 0.015807934 -7.0264105e-05 0.001192728 -0.02081312 -0.021536978 -0.023684492 0.022982562
0.026292074 -0.013312196 0.017662171 -0.029019667 0.021562427 -0.029344812 0.0064742565 -0.0023053724
0.02997008 0.0029085253 0.033685762 0.0053957906 -0.028496962 0.033307955 -0.020877548 0.03238958
-0.025749404 0.0047877547 0.016808704 -0.022424137 0.00055553834 -0.007571567 0.017454417 -0.016836368
0.025123395 0.01242801 0.037325125 -0.0100898845 0.00028441678 0.022885278 -0.0027952567 0.0006857275
-0.0070015537 0.032036256 -0.008507628 0.003372546 0.021850301 -0.032779902 0.0020229132 -0.0068676947
0.0113848075 0.021936158 0.004387781 0.009050098 -0.016863124 0.017464442 -0.0024681808 -0.026265964
-0.0065165297 -0.011250278 0.02610128 -0.02297107 0.026498443 -0.0021656784 0.0023228256 0.002584302
0.021151459 -0.02930428 0.033078637 -0.0035134577 0.03042201 0.007449191 -0.035508938 0.01714983
-0.012154187 0.018077534 0.026926331 0.032974888 -0.0076515367 -0.021141088 0.034464475 0.016677652

weight f4 [64, 128]
00000000: 9dc4 8f3d 7128 dabc 56a0 87bd a6ad e0bc
00000010: 05eb cbbb a943 253c 0aef ecba 71f0 363e
00000020: 98be 7fbc 0008 da3c 8a25 883d be81 0a3c
00000030: 815c 52bd a12d 573c 5b0d 043d 4dc2 143e
00000040: 76f1 a9bd ea32 3b3d 178c a53d 226f f13d
00000050: 297c d23c 1a44 013e 978e af3d cc1a a83d
00000060: 0452 073e 0f5d cebc d87b 40bd a5a5 10bd
00000070: 3c8b 423d 2c67 80bd 04c4 a3bd 19df 75bd
00000080: 48c9 c5bd 07de d3bd de66 3f3d 0655 5fbd
00000090: 5c74 623d e66e 7aba 350a f439 d570 6bbd
000000a0: 362a 49bd 6535 043d 0c43 a73d fb56 0dbc
000000b0: 8971 13bd b113 d5bd 1b41 8c3c 3956 763d
000000c0: b415 c73c 70d3 023d 0432 0a3d 2d53 853c
000000d0: 5d0e 9b3d 7e1d d03d 5bd1 a9bd b17a 76bc
000000e0: e49b ccbc 4d11 b43d 4b75 65bc 111d 223d
000000f0: 06b0 823c 0c9e 0fbc 5004 a0bc 231c 25bd
00000100: aa6f f8bc 8bda a2bd e104 0bbd f4cc dfbb
00000110: 6a1c cb3d 8296 4abc d80c c93d 6068 943d
00000120: 41cf 4b3d 1086 063e a967 ba3d aca6 05be
00000130: 47fd a2bd b732 59bd 640e 5f3d 96e5 843d
00000140: 0151 90bd 4c1e dabd e56f 0c3e 9170 1ebd
00000150: 00f8 7bbd fb8e ae3d 34f8 f13d 25e1 ba3d
00000160: d0a6 95bd d841 ba3b 8d6b 36bc c0fa 79bd
00000170: c297 6e3c ee6e 043d e827 75bd 414a 96bd
00000180: 6bc6 783d cb7a 0ebd 63a7 5fbd e718 2b3d
00000190: 3370 b3bd dab6 093d 5711 1dbd af31 a13d
000001a0: 510e 64bd 4478 e33c 0fc2 2e3d 296e 0fbd
000001b0: 82a7 393c 1b88 17bc 7c01 b73c 3f33 7abd
000001c0: 3944 783c f604 e9bc bf23 90bd 8afd 923d
000001d0: 54c8 87bd 6b24 75bd 6bdc 3cbd cd38 3a3d
000001e0: 8ee8 4dbd be56 0e3d c605 843d 4105 933d
000001f0: 0fb1 a9bd bbd3 a93c 9559 82bd 35f0 aabc
00000200: c61d fc3c 54db be3c 42b4 5a3b bd7b 1c3d
00000210: 0ec6 9dbd b64a abbc ce24 84bd 9ace 35bd
00000220: ac2c 7bbd 631e af3d a088 5cbd d423 8d3b
00000230: d2a9 aebc 9805 d7bd ae5b e4bc 5a51 09bd
00000240: 7c03 8d3d 2ed6 d43b 7aa2 cebc a22f 573d
00000250: d633 4e38 5294 e6bd f7ac c8bc 489d 043d
00000260: 7eff 81bc cc11 b3bc 99d0 363d 7c60 9e3d
00000270: 2d8e d93b f000 953d bd10 a93d 8a6f a43d
00000280: f0d0 b33b 070b 283d 083e 8ebb c5d6 ba3d
00000290: 4ce3 7cbd 8519 21bd a760 e53b 9ef1 29bd
000002a0: ba30 e8bc a58e c4bb 3741 4ebd dc80 1b3d
000002b0: 243a fdbb 0e83 6dbd b6ab 233c eacd cabd
000002c0: 28ce 123d 09da 0f3e 6374 cd3d eab1 4e3d
000002d0: a57d 2cbd 9efd 363d b741 883d 40ab 63bd
000002e0: d888 083d ee6c c53d d141 96bd 887e b13c
000002f0: da25 0f3d d4fe ff3d fa8a 843d a81e 40bd
00000300: 2f8c 14bd 16c6 513d 0428 a1bc 9a3b 943c
00000310: aed7 6cbd 5fd1 00bd 4474 db3d 57b3 12bd
00000320: 63be 80bc 7503 8e3c c1b6 803d 9ee1 9bbd
00000330: b2e5 013d f2b5 613d 87a4 3fbb 2c1d 95bc
00000340: 70c5 933d 36bc 693c dae1 4fbd 4e0e 833d
00000350: 49dd 873d 8539 a7bd 7d15 513d f41c f63d
00000360: b0d5 82bc a742 f53c 7e0d a53d 613a 873d
00000370: cdfd 703d 94b1 1cbd a25d bc3d 0479 10bd
00000380: 0426 b93a 4fa1 913d ecc3 823d a81a aebd
00000390: 015b febb 683b 5ebd 113f a43d 2018 d13d
000003a0: 844a a23d 78f7 e83c ebe6 6ebd d4b8 2fbd
000003b0: 190c 68bd 0286 f13d 3a69 723d 1b57 32bd
000003c0: 4cea e8bc e003 afbd 2b8d 723d 3628 c5bc
000003d0: 3d70 00be faaa 2cbd d455 0e3d 26d4 d13d
000003e0: dbfd 103c 25c8 c8bc fc31 bbbc 3f00 333d
000003f0: 3de2 ad3c b7d3 44bb ac39 8abd 4fc2 0abd
0.07019923 -0.026630612 -0.066223785 -0.027426552 -0.006223085 0.010086932 -0.001807661 0.17865159
-0.015609406 0.026615143 0.06647785 0.0084537845 -0.05135775 0.013133437 0.0322393 0.14527245
-0.08298008 0.045702852 0.08083361 0.11788775 0.02569397 0.12623635 0.08572119 0.08208236
0.1321488 -0.025190858 -0.046993107 -0.03531422 0.047496065 -0.062696785 -0.079963714 -0.060027216
-0.09657532 -0.10345083 0.04672896 -0.054524444 0.05528675 -0.00095532683 0.00046546911 -0.057480652
-0.04911252 0.032277483 0.08167085 -0.008626695 -0.035996947 -0.104041465 0.017120888 0.060140822
0.024302341 0.031939924 0.033739105 0.016275013 0.07571099 0.10161875 -0.082918845 -0.0150439
-0.024976678 0.08792362 -0.014005016 0.0395785 0.015953075 -0.008765709 -0.019533306 -0.040310036
-0.030326683 -0.0795184 -0.0339402 -0.0068298522 0.09917529 -0.012364985 0.09816903 0.072464705
0.0497582 0.13137078 0.09101803 -0.13051862 -0.07958465 -0.05302688 0.054457083 0.064891025
-0.070467 -0.1065031 0.1371456 -0.03868157 -0.061515808 0.08523365 0.11814919 0.09124974
-0.073072076 0.0056841187 -0.011134041 -0.06103015 0.014562549 0.032332353 -0.05985251 -0.073383816
0.0607361 -0.034785073 -0.05460299 0.041771796 -0.08761635 0.033621646 -0.038346615 0.078708045
-0.055677716 0.027767308 0.042665537 -0.035017166 0.011331441 -0.009248759 0.022339575 -0.06108403
0.015152984 -0.028444748 -0.07038068 0.07177265 -0.066300064 -0.059849184 -0.046108644 0.045464326
-0.05027061 0.034750693 0.06446414 0.071787365 -0.08285724 0.020730844 -0.06364743 -0.020866493
0.030775916 0.023297943 0.0033371602 0.038203944 -0.077037916 -0.020909648 -0.064523324 -0.044386484
-0.0613219 0.08550718 -0.053841233 0.0043072496 -0.021321211 -0.10499114 -0.027875748 -0.03352485
0.0688543 0.006495259 -0.02522396 0.05253566 4.9162503e-05 -0.112587586 -0.024496539 0.032376558
-0.015868898 -0.021859072 0.044632528 0.07733247 0.006639263 0.072755694 0.08255146 0.08029087
0.005487554 0.04102614 -0.004340891 0.09122995 -0.061740205 -0.039330978 0.0070000472 -0.04149019
-0.028343547 -0.00599845 -0.050355162 0.037964687 -0.007727878 -0.05798631 0.00998967 -0.09902556
0.035841137 0.14048018 0.10031965 0.05046264 -0.04211201 0.044675462 0.06653159 -0.05558324
0.03333363 0.09639917 -0.07336772 0.02166678 0.034948207 0.124997765 0.0647182 -0.046904236
-0.036266502 0.0512143 -0.019672401 0.018094826 -0.057822876 -0.03144967 0.10715535 -0.035815563
-0.015715783 0.017335633 0.062848575 -0.076113924 0.031713195 0.055105157 -0.0029242353 -0.018202387
0.072153926 0.014266064 -0.0507525 0.06399213 0.06634004 -0.08165268 0.051045883 0.12017241
-0.015971035 0.029939009 0.08059214 0.06602932 0.058835793 -0.03825529 0.091975465 -0.03527166
0.001412571 0.07110845 0.063850254 -0.08501178 -0.0077623134 -0.054255873 0.080198415 0.102096796
0.07924369 0.028438315 -0.05832569 -0.042900875 -0.056652162 0.11793138 0.059182383 -0.0435401
-0.028432034 -0.08545661 0.05921666 -0.024067026 -0.12542816 -0.042155243 0.03474982 0.10245542
0.008849586 -0.024509499 -0.022850983 0.043701407 0.021226043 -0.0030033418 -0.06749281 -0.033876713

bias f4 [64]
00000000: 015a ac3c 7097 1cbd fee1 1b3d 50b4 81bd
00000010: 9091 36bd 952d b83d 9066 44bb 6479 91bd
00000020: d4fe 6dbd 1cc8 3ebc 884d db3b 48d5 91bc
00000030: 326f 213d 81ca 62bb 0bce 883d c787 283d
00000040: b935 90bd 9138 a53d def0 6c3d 9f9a 87bd
00000050: 49cb 60bd fbcf 3a3c 1266 4abd b853 01bc
00000060: d384 453d 7b66 b3bd 987b 7b3d 3858 683d
00000070: c21e 6a3c cd5a c73c 9ebe ab3d 7522 793d
00000080: 3fdc 7a3b 2f87 3ebd 9158 1aba 4698 26bc
00000090: 575d 9dbd 3dd4 ad3d 0a74 9bbb c2c8 63bd
000000a0: 2501 13bb ba6d a9bc 3f16 01bc c697 23bb
000000b0: 643b 603d 6da6 33bd 5796 81bd 712e 50bd
000000c0: 8b5a 313c e932 2e3d 44d3 8ebd 4fa5 2dbd
000000d0: 88fe ca3c 88d8 843d 9801 04bd 0b97 15bc
000000e0: 0f72 93bc 1a16 0d3d 4ec7 843c 932a 823c
000000f0: c379 ac3d cbf1 3ebd 00b7 873d d05c 3abc
0.021039011 -0.03823036 0.03805732 -0.0633322 -0.044572413 0.08993069 -0.0029968359 -0.071032315
-0.05810435 -0.0116443895 0.006692592 -0.017801896 0.039412685 -0.0034605565 0.066799246 0.041145112
-0.07041497 0.0806743 0.057846896 -0.066212885 -0.054881368 0.0114021255 -0.049413748 -0.007893495
0.048222374 -0.08759781 0.061397165 0.056724757 0.01428956 0.02433529 0.08385967 0.060823876
0.003827825 -0.04651564 -0.0005887831 -0.010168141 -0.07683819 0.08487747 -0.0047440575 -0.05561138
-0.0022431102 -0.020682205 -0.007878839 -0.002496229 0.05474414 -0.043859888 -0.06327503 -0.05082554
0.01082481 0.04252902 -0.069738895 -0.04239398 0.024779573 0.064866126 -0.032228082 -0.00913025
-0.017998723 0.034444906 0.016208317 0.015889442 0.08421662 -0.04661731 0.06626701 -0.011374667

weight f4 [10, 64]
00000000: 2e37 9dbe 3d6e 90bd 4477 cb3c f85a 933d
00000010: 960f 0c3d 0ab1 ed3d fee6 8aba b9b0 cabd
00000020: ac2b 06be a04c ec3d 65bf 813e 875a 3c3d
00000030: 6c21 90bd a98c 9fbe 3be6 80bd ac96 48bd
00000040: 0bdf e3bd f67c 233e 7f3c 123e db77 f0bd
00000050: 7012 96bc 65b5 453e 718f bb3e 454e 43bd
00000060: 3e46 ab3d 5f95 c83c b447 863e e5e7 32be
00000070: cabb 98bd 92e6 ab3d fa22 41bd 6fda 0a3b
00000080: c501 f23d 90e2 19bc e0b2 093d b4d6 26bd
00000090: 36b1 26be 305f a13c 1ea8 05be c16e b33d
000000a0: a655 adbd 1ae7 1a3e fdb7 fbbc 29e7 29bc
000000b0: 58ee 2bbd c99e 42bd b87c d4bd a663 fbbd
000000c0: 0658 d53b eec7 053d ce7d 3fbc 2232 afbe
000000d0: f53a 143e 3c64 933e 1ebd 0e3e 73b0 fdbc
000000e0: 5ab0 4abd 8555 79bd 1e03 30bd 3204 8abd
000000f0: d93a 093e a766 7abe cc51 7b3d 37fe 313e
00000100: 6fe0 943e 11d8 27be 3aa1 8abd d3f6 9b3d
00000110: 6b46 5f3d 2f56 54bd 4313 2ebd 86e4 96bd
00000120: bf0c 983e c940 3abe 5660 d43d 3686 f13d
00000130: 5d4b 873d 78f7 783d f9e7 863e c01a 983d
00000140: 80d4 cd3c ef2a 31bd 0396 92be edaf 033e
00000150: 86de e53d 33f4 ce3d 2c38 3fbe 0b4a e63d
00000160: a527 17bc 133c 8abd 1f4c dabd 230a d23c
00000170: 53a5 60bc 97f4 c3bd c5ed fd3b 7ed7 79be
00000180: 6a43 a63d ccbb c0bc 576d 3f3d 65d8 283e
00000190: 9b4c d4bd 0f89 283d 9abf 45bd be04 013e
000001a0: 798b 4bbe 9a1b 43bd 3879 95bd d7c8 56bd
000001b0: 8d78 0abe 3817 a53d da07 92bd f873 1b3e
000001c0: 30a8 e33d c1fe 1c3e f87b a7be b43b 58b6
000001d0: 9949 f8bd 13a5 3cbe 6275 64be e54c 68bd
000001e0: 1a6e a63d 66ec 2abe daa1 cf3d abff 753d
000001f0: 5ac6 463e 12d8 1e3e 599b 88be 2579 293d
00000200: 7fd4 64be a098 7fbb f06e cc3c e862 84bc
00000210: e133 c9bd 5670 43bd 5965 aabd 6283 06be
00000220: 8b1f d73d 67a1 aa3c 51e4 4e3e 99bd 573e
00000230: 4ab7 863d d435 7abd 95c9 073e 9c7b 863d
00000240: 2e3b 0cbd 8217 9ebe e3cd e4bc 27ba 463e
00000250: eecb 75bc c9da 1fbe b34f 14be 5362 acbd
00000260: 1a25 97bc f0e8 843b b844 583e d1f6 77bc
00000270: 2ea2 193e 34a2 f8bd d8b3 32bb 4221 2e3e
00000280: dc1d 4b3d 963f ba3c 4b69 80bd d88a a0be
00000290: 69fc 833e 1f38 a03d 2012 fd3d 3361 f03d
000002a0: 096f 2e3e c1da 883e b0b9 adbd 5c7a 95bd
000002b0: a4a4 4f3d d2f9 1abe 24ba 873d 015c ba3c
000002c0: 8b78 bdbd 2ff1 0a3e a80c 61be 6bf3 e73c
000002d0: 9f11 f93c 9d20 9b3d 51d0 b63d c2f1 203d
000002e0: 437f aebb 2197 883e 808f 83bb 3f4e 073d
000002f0: 8298 093e e4ea b43c 1d1e 2bbe d4c4 173e
00000300: 444e 5cbc 3ad0 8a3d 76a5 a33d 72de 2f3d
00000310: 7aab 3e3d c33a 283e 406f 49bd 17fc 06be
00000320: 82d2 aebd 3a2d 9bbc cefe 003d f4f7 1d3e
00000330: d6e4 c6bd a33a b43c 7363 f63d 5fd7 30bd
00000340: 126b d6bd b7c0 f8bd dc39 e5bd 7fc5 2dbe
00000350: 7221 a73d 5462 133e f32f d1bd 90f4 fabd
00000360: d4bc 983d ee95 fa3b 92c5 253d 071d 253d
00000370: 4cf2 38be d1fd 863b b6c5 abbd 2a3e 98be
00000380: 06b6 643c 94d2 73bc 44ed 93bd 84b9 68be
00000390: b310 7cbd eac7 83bd 389b b43d 6df7 9d3d
000003a0: b5a7 a6bc 6051 fbbd 63d0 e43e 0135 3fbd
000003b0: 3eb2 0fbe 0ae5 653e 8eaf 05bd f8bc e43d
000003c0: b43b 6fbd a241 24bc db43 613e a3ce ad3c
000003d0: 1127 16be b3ef edba 5fef cf3d aff4 9f3d
000003e0: 1d2a 0eba be94 b83e c662 9c3d 1246 813d
000003f0: 32b3 50bd eb98 253e 3a41 dbbd f781 7cbb
-0.3070616 -0.07052276 0.024837144 0.07195085 0.03419455 0.11606033 -0.0010597405 -0.098969884
-0.13102597 0.115380526 0.25341335 0.04598477 -0.07037625 -0.31162003 -0.06293913 -0.048971817
-0.111265264 0.15965638 0.1428089 -0.117416106 -0.018319339 0.19307478 0.36632875 -0.047682066
0.08363007 0.024485288 0.2622658 -0.17471273 -0.07457693 0.08393587 -0.047152497 0.0021187325
0.11816744 -0.009392396 0.033617854 -0.0407321 -0.16278538 0.01969871 -0.13052413 0.08761359
-0.08463602 0.15127221 -0.03072738 -0.010370054 -0.04197535 -0.04751471 -0.10375351 -0.12274866
0.0065107374 0.03266137 -0.011687709 -0.34217936 0.14475615 0.2878741 0.1393933 -0.030967927
-0.04948459 -0.060872573 -0.042971723 -0.067390814 0.13401355 -0.24453221 0.061357304 0.17382132
0.2907748 -0.16391017 -0.06769033 0.07615437 0.054510515 -0.051840004 -0.04249884 -0.07367806
0.29697224 -0.18188776 0.10369937 0.11793177 0.06606171 0.06078288 0.26348856 0.07426977
0.025125742 -0.043253835 -0.28630075 0.12860079 0.112240836 0.10105171 -0.18673772 0.11244591
-0.009225761 -0.067497395 -0.1065905 0.0256396 -0.013711291 -0.09568136 0.0077492916 -0.2439861
0.08118327 -0.023527049 0.046735134 0.16488798 -0.10366174 0.041146334 -0.04827843 0.12599465
-0.19877423 -0.047633745 -0.07298511 -0.05243763 -0.13522549 0.08061069 -0.07130404 0.15180957
0.111160636 0.15331556 -0.32711768 -3.222126e-06 -0.12123413 -0.18422346 -0.22310403 -0.056713957
0.08126469 -0.16691741 0.101382926 0.060058277 0.19411603 0.15512112 -0.2668102 0.041375298
-0.22346686 -0.0039000884 0.024955243 -0.016160443 -0.09824348 -0.047714554 -0.08320112 -0.13136056
0.10504063 0.020828916 0.20204283 0.2106842 0.06577928 -0.06108649 0.13260491 0.06566545
-0.034236126 -0.3087731 -0.027930206 0.19406949 -0.015002234 -0.15610804 -0.14483528 -0.08417191
-0.018450309 0.0040560886 0.21119964 -0.015134529 0.15003273 -0.12140313 -0.002726784 0.17004874
0.049589023 0.022735398 -0.06270083 -0.3135593 0.2577851 0.07823204 0.12356973 0.11737289
0.17034544 0.26729396 -0.08482683 -0.07298729 0.050694123 -0.15134361 0.066273004 0.022748949
-0.09251507 0.13568567 -0.21977484 0.028314313 0.03040391 0.0757458 0.08926452 0.03929306
-0.0053252294 0.26677802 -0.0040149093 0.033033606 0.13437083 0.02208466 -0.16710706 0.14821178
-0.013446394 0.06777997 0.079905435 0.04293675 0.04655025 0.16428666 -0.049178362 -0.13182102
-0.08536245 -0.018942464 0.031493 0.15426618 -0.09711616 0.022000616 0.12030687 -0.043174144
-0.10469641 -0.121461324 -0.111926764 -0.1696987 0.08160676 0.14392978 -0.10214224 -0.12253678
0.07457891 0.0076472675 0.04047162 0.040310886 -0.18061179 0.0041196127 -0.0838732 -0.29734927
0.013959413 -0.014881749 -0.07222989 -0.22727019 -0.061539363 -0.06434615 0.08818668 0.07713208
-0.02034364 -0.122713804 0.44690236 -0.046681408 -0.14032838 0.22450653 -0.032638125 0.111688554
-0.058406547 -0.010025414 0.21998541 0.021216696 -0.1466334 -0.0018153101 0.10153078 0.078103416
-0.00054231455 0.3605098 0.07636027 0.06312193 -0.050952144 0.16171615 -0.107058 -0.0038529614

bias f4 [10]
00000000: 9bba dabd bc97 673c 4c55 513d cbb4 a03b
00000010: 2dd6 93bd 7db5 22bc b20f 88bd 55fe 2dbd
00000020: 9c57 c73d 8e6e d9bc
-0.106801234 0.014135297 0.051106736 0.0049043647 -0.07218585 -0.0099309655 -0.06643619 -0.042478878
0.09733507 -0.026541974
