MNIST/model/mnist_model_2024-03-06_17-14-20.pth (torch, 441559 bytes, 6 tensors)

weight f4 [128, 784]
0	0x3bec4c45	0.0072112405
1	0xbce5e3da	-0.02806275
2	0xbd0124ff	-0.031529423
3	0x3c20d31e	0.009815959
4	0x3bdb061e	0.006684079
5	0x3d013ec9	0.031554017
6	0xbc702058	-0.014656149
7	0x3c930ca0	0.017950356
8	0xbcda665a	-0.026660133
9	0x3c9e47ae	0.019321289
10	0x3b223d65	0.0024755832
11	0xbcee72ca	-0.02910747
12	0xbc3f8aec	-0.011690836
13	0x3cb0fe9a	0.021605778
14	0xbc7e0d3f	-0.015506088
15	0x3c4ddfae	0.012565536
16	0xbcab1827	-0.02088554
17	0x3cf800ee	0.03027388
18	0x3c627bd2	0.013823466
19	0xbb777c20	-0.0037763193
20	0x3bf8fb41	0.007598311
21	0x3c7f16ca	0.015569398
22	0x3d0beb93	0.034160208
23	0xbc69d482	-0.014271857
24	0x3bc61e24	0.0060460735
25	0xbd0d0f18	-0.034438223
26	0xbbf6d4a4	-0.007532673
27	0x3c4b6462	0.01241407
28	0x3c8fbc6a	0.017545898
29	0xbabe17cd	-0.0014502943
30	0x3c25e48e	0.010125292
31	0xbba66af9	-0.00507867
32	0x3c9c37b1	0.019069524
33	0x3c5ee2ec	0.013603907
34	0x3cb4e037	0.02207957
35	0x3c2bf357	0.010495028
36	0xbb6d7ae0	-0.003623657
37	0x3c8e2443	0.017351275
38	0xbcef4117	-0.029205842
39	0xbc62dad9	-0.013846123
40	0xbcfe3d88	-0.0310352
41	0x3cc8c856	0.02450959
42	0xbbbd8945	-0.005784186
43	0xba03e38e	-0.00050311617
44	0x3a8a0cc0	0.0010532364
45	0x3c7bbdb6	0.015365055
46	0xbd143703	-0.036185276
47	0x3c2846a3	0.010270747
48	0x3b6a8d8d	0.0035789937
49	0x3baa57b0	0.0051984414
50	0xbaa6bb47	-0.0012720608
51	0xbc4c1b0a	-0.0124576185
52	0xbd064e17	-0.032789316
53	0xbc03cfae	-0.00804512
54	0x3c0734fe	0.00825238
55	0x3c9fcf5c	0.019508056
56	0x3cb66d1e	0.022268828
57	0x3c93c7e2	0.018039647
58	0xbc45906b	-0.012058358
59	0xbcc0fc90	-0.023557931
60	0xb93107a7	-0.00016882886
61	0xbce45e4f	-0.027877001
62	0x3cf779b9	0.03020941
63	0x3d062a59	0.03275523
64	0x3d010886	0.03150227
65	0x3bcc1270	0.006227784
66	0xbc616819	-0.013757729
67	0x3c2c58c0	0.0105192065
68	0xbcab6d5b	-0.020926168
69	0xbd058db0	-0.032605827
70	0xbbcc807a	-0.0062409015
71	0x3d0e622a	0.034761585
72	0xbcd2ebc6	-0.025747191
73	0xbc9e397b	-0.019314518
74	0x3ce87eed	0.028380835
75	0x3d0c14e5	0.034199614
76	0x3c980440	0.018556714
77	0x3b793b90	0.0038029887
78	0x3cb6c401	0.022310259
79	0x3c2cb766	0.0105417725
80	0xbcda54b8	-0.026651725
81	0x3c5aed84	0.013362292
82	0xbc8ec820	-0.017429411
83	0xbd0c2540	-0.034215212
84	0xbd0774c4	-0.03307034
85	0xbc5b8122	-0.013397487
86	0x3c820030	0.01586923
87	0xbcfc1c26	-0.030775141
88	0xbce09fc7	-0.027419938
89	0xbc6a4068	-0.014297582
90	0x3b15f0e5	0.002287918
91	0x3c82a0b8	0.015945777
92	0xbc97e607	-0.018542303
93	0x3ceb3911	0.028713735
94	0x3afca772	0.0019275977
95	0xbcc2ecd7	-0.023794575
96	0x3d03a1e5	0.032136817
97	0x3c7a32ff	0.0152709475
98	0xbc3beed4	-0.011470515
99	0xbd0ff83a	-0.035148837
100	0x3cb591a8	0.02216418
101	0xbb31d8e0	-0.0027137324
102	0x3ccd30f2	0.025047753
103	0xbc058b0b	-0.008150826
104	0xbd0d39d2	-0.03447897
105	0xbc79ae75	-0.015239348
106	0x3ae11bb9	0.00171744
107	0xbcf3f9e4	-0.029782243
108	0xbcd12927	-0.025532318
109	0xbc907890	-0.017635614
110	0xbd09d8aa	-0.033653893
111	0xbd069a5a	-0.032862045
112	0xbcb3a385	-0.021928558
113	0xbc37b90c	-0.011213552
114	0xbc225a34	-0.009909201
115	0xbc9523b7	-0.018205507
116	0xb9e3ad52	-0.00043425948
117	0xbc3c64ad	-0.011498612
118	0x3c30f6b9	0.010801011
119	0xbd108b3d	-0.035289038
120	0xbd124d2e	-0.035718136
121	0xbc41e4da	-0.011834348
122	0xbc6d7f3f	-0.01449567
123	0xb9df808a	-0.00042629644
124	0xbbecf534	-0.007231379
125	0xbc220e8a	-0.009891162
126	0xbad25c5f	-0.0016049257
127	0xbcc1b3d9	-0.023645328
128	0x3bbf65d1	0.005840995
129	0xbbec5c91	-0.007213183
130	0xbc02a55a	-0.007973993
131	0x3c021e2f	0.007941767
132	0x3ce41fd3	0.027847206
133	0x3cce4b5d	0.02518242
134	0x3c1a57b1	0.009420321
135	0xbcd9c9c6	-0.02658547
136	0xbc4c797b	-0.012480135
137	0x3c02cb09	0.007982978
138	0xbc6f704a	-0.014614174
139	0x3c89ce43	0.016821986
140	0x3c79caf2	0.01524614
141	0x3d0cdec7	0.034392145
142	0x3d030ee7	0.031996634
143	0xbcc6eddc	-0.024283342
144	0x3cc16f0b	0.02361252
145	0x3c6483be	0.013947425
146	0xbc338fc7	-0.010959572
147	0xbc86f267	-0.016473008
148	0xbd0d79e5	-0.034540076
149	0xbb97804a	-0.0046234475
150	0xbbf05c64	-0.0073352326
151	0x3c2d3d19	0.010573649
152	0x3c80ad3e	0.015707608
153	0xbc008d1d	-0.007846144
154	0x3d40d4b6	0.047077857
155	0x3d16c2f1	0.036807004
156	0xbc828d59	-0.01593654
157	0xbcd0de3c	-0.025496595
158	0xbc596101	-0.013267756
159	0xbd08c2ed	-0.03338902
160	0xbb0cd0c5	-0.002148674
161	0x3c4df858	0.012571417
162	0x3c14b5ee	0.009076579
163	0xbbe9d17b	-0.0071355677
164	0xbcc51363	-0.024057096
165	0x3caf893d	0.021427745
166	0x3cb7beb4	0.022429802
167	0x3cdeac11	0.027181657
168	0xbd0047fe	-0.031318657
169	0xbd0909ba	-0.03345654
170	0xbc8b395b	-0.016995123
171	0x3bed5434	0.007242704
172	0x3caf75a2	0.021418396
173	0x3c6002af	0.013672515
174	0xbc2725d5	-0.010201891
175	0xbcaae47b	-0.020860901
176	0x3c0bbb55	0.00852855
177	0xbce5793f	-0.028011916
178	0xbb530649	-0.0032199791
179	0x3d13a23a	0.036043383
180	0x3ca687fb	0.020328512
181	0x3c9099df	0.017651496
182	0x3cbc6f89	0.023002403
183	0x3cd29f2f	0.02571067
184	0xbcd615c8	-0.026133433
185	0xbbc257bc	-0.005930869
186	0x3cdd37ce	0.027004149
187	0xbbc5a7bf	-0.00603196
188	0xbd1170a8	-0.035507828
189	0x3cc0b82d	0.023525322
190	0x3af7ec0d	0.0018914953
191	0x3cefe977	0.02928613
192	0xbd0a610e	-0.033783965
193	0x3c1270e9	0.008938053
194	0xbcfbf59f	-0.03075677
195	0xba962b53	-0.0011457003
196	0x3c8b61a2	0.017014328
197	0xbd0dde26	-0.034635685
198	0xbbca934c	-0.00618211
199	0xbbc2f636	-0.005949761
200	0xbc94f175	-0.018181542
201	0x3be30f83	0.0069293394
202	0x3bf4c1d7	0.0074693966
203	0xbd058dd3	-0.032605957
204	0xba9da693	-0.0012027792
205	0x3d172a7b	0.036905747
206	0x3cee37a7	0.029079271
207	0x3c0458c4	0.008077804
208	0x3c678302	0.014130356
209	0xbbc296a2	-0.005938367
210	0xbd20decd	-0.03927498
211	0xbd3b132c	-0.04567258
212	0xbc972d58	-0.018454239
213	0xbcaaa211	-0.020829232
214	0x3c7ecaaa	0.015551249
215	0xbcd4cb97	-0.025975985
216	0xbc1d8b47	-0.009615726
217	0xbba30760	-0.0049752444
218	0xbc94aecd	-0.018149758
219	0x3cf40f87	0.02979256
220	0x3cb4e905	0.022083769
221	0x3ccf67e6	0.025318097
222	0xbc8c3909	-0.01711704
223	0xbcfde328	-0.030992106
224	0xbcdff4c5	-0.027338395
225	0xbca57455	-0.020197073
226	0xbc939867	-0.018017007
227	0x3c28186c	0.010259729
228	0xbc8e9865	-0.017406652
229	0x3c6b18e6	0.014349198
230	0xbc02e609	-0.007989415
231	0x3d15e5b4	0.036596015
232	0x3c637477	0.013882748
233	0xbb954d7c	-0.004556356
234	0x3d2abe7c	0.041685566
235	0xbcabd8f3	-0.020977473
236	0xbcdd3ba1	-0.027005972
237	0xbb94cfd5	-0.004541377
238	0xbd3dc229	-0.046327744
239	0x3c3c3b77	0.011488787
240	0x3b8bc7f2	0.0042657787
241	0x3ca71d5c	0.020399742
242	0xbcc95339	-0.024575816
243	0xbc481e8f	-0.012214317
244	0xbcc00258	-0.023438618
245	0x3c8df33e	0.017327901
246	0xbc8ba4c6	-0.017046344
247	0xbb905c3c	-0.0044055264
248	0x3cef41a8	0.029206112
249	0x3c26f39b	0.010189916
250	0x3bfa28a7	0.0076342407
251	0x3c2d1566	0.010564184
252	0x3b8252a5	0.003977137
253	0xbc19d70f	-0.009389653
254	0x3ccf280c	0.02528765
255	0x3d05e7cb	0.032691758

bias f4 [128]
0	0xbd0d2d91	-0.034467284
1	0x3a8341a4	0.0010014069
2	0x3d051de7	0.03249922
3	0x3c6a8e77	0.014316193
4	0xbcb42fc0	-0.021995425
5	0x3c649b5c	0.013953056
6	0xbce7d6ce	-0.028300669
7	0x3c6a2ebe	0.014293371
8	0x3d1bd2f2	0.03804297
9	0x3c50eb35	0.01275139
10	0xbd01aff5	-0.031661946
11	0xbc0be2cd	-0.00853796
12	0x3d1c1598	0.03810653
13	0x3c69490b	0.014238606
14	0x3cb8764e	0.02251735
15	0xbc3f98a5	-0.011694108
16	0xbc42cf7f	-0.011890291
17	0xbc53b26b	-0.012920956
18	0xbc105a88	-0.008810647
19	0xbcd8c083	-0.026458984
20	0xbc89749b	-0.016779235
21	0xbcd61253	-0.026131785
22	0xbcdbc342	-0.026826505
23	0x3cbd9575	0.023142556
24	0x3b839d1e	0.0040165326
25	0x3d007436	0.031360827
26	0xbc4b2c81	-0.012400747
27	0xbc8d8041	-0.01727307
28	0x3cbc0efd	0.022956366
29	0xbc007e10	-0.007842556
30	0xbc7a6a6e	-0.015284164
31	0xbcbe25d7	-0.023211403
32	0xbcc12ea3	-0.023581808
33	0xbc66d717	-0.014089367
34	0x3ce9e589	0.028551834
35	0xbd0d0dc1	-0.034436945
36	0x3c04316a	0.008068422
37	0x3c8a66e1	0.01689476
38	0xbd1010cb	-0.035172265
39	0x3c8d194e	0.01722398
40	0xbbbe4f10	-0.005807765
41	0x3c8492ed	0.01618334
42	0x3c854843	0.016269809
43	0x3c99145a	0.018686462
44	0x3c05b697	0.008161209
45	0xbc4c2f27	-0.012462414
46	0x3bf796b6	0.007555808
47	0xbc4f2883	-0.012643936
48	0x3c363c27	0.01112274
49	0xbcf84b13	-0.030309236
50	0x3ce60160	0.028076828
51	0x3d140af3	0.036143254
52	0x3d09bc5b	0.033626895
53	0xbc280969	-0.01025615
54	0x3c85cba7	0.01633246
55	0xbcbd14de	-0.02308124
56	0xbd01494c	-0.031564042
57	0xbc71115c	-0.014713611
58	0xbcfd7301	-0.030938627
59	0xbba68b2e	-0.0050825095
60	0x3cc2af2e	0.023765173
61	0x3bacecf9	0.005277273
62	0x3d017e76	0.031614743
63	0xbca22752	-0.01979414
64	0x3d03f431	0.0322153
65	0x3bb17cbc	0.005416481
66	0x3ccf5e24	0.025313444
67	0xbca82f7e	-0.020530459
68	0x3cd48213	0.02594093
69	0x3d1224df	0.035679694
70	0xbc990b55	-0.018682161
71	0xbcafd08e	-0.021461751
72	0x3c765eca	0.015037248
73	0xbcafa348	-0.021440163
74	0xbcf0e9c9	-0.029408352
75	0x3c72956d	0.014806134
76	0xbca90006	-0.020629894
77	0xbc631aaf	-0.013861342
78	0x3cc0787a	0.023494948
79	0xbc307e86	-0.010772353
80	0x3ceb4a26	0.02872188
81	0x3c6e49e1	0.014543981
82	0xbc859ac0	-0.016309142
83	0x3ba25a75	0.004954631
84	0x3c7cf430	0.015439078
85	0x3c7d3345	0.015454118
86	0xbc87ff8e	-0.01660135
87	0xb9bd015a	-0.00036049896
88	0xbce36783	-0.02775932
89	0xbca1d9b3	-0.019757127
90	0xbce0d8f6	-0.027447205
91	0x3c7ca1d6	0.015419444
92	0x3b9cfe2e	0.004791043
93	0xbccb0878	-0.024784312
94	0xbcf1cc0c	-0.029516242
95	0x3c8bea82	0.017079595
96	0xbcdd3941	-0.02700484
97	0xbbeb8c45	-0.0071883523
98	0x3cab23d0	0.0208911
99	0x3c93a201	0.018021585
100	0x3cea79f1	0.0286226
101	0x3d12a3fb	0.035800915
102	0xbad71ef5	-0.0016412424
103	0x3cdb6483	0.026781326
104	0x3ac5a115	0.0015077913
105	0x3d071135	0.032975394
106	0x3ae52202	0.0017481449
107	0xbd08ed20	-0.033429265
108	0xbcd096f3	-0.025462603
109	0xbca41827	-0.020031048
110	0xbcc949fd	-0.024571413
111	0xbb73530c	-0.0037128357
112	0xbcec8112	-0.02887014
113	0xbbf91126	-0.007600921
114	0xbcf5862c	-0.029971205
115	0xbcbd55e1	-0.02311224
116	0xbcd5c59e	-0.026095208
117	0x3d035b22	0.032069333
118	0x3b3b7867	0.00286057
119	0x3cb5c1fb	0.022187224
120	0x3d1aac85	0.037762184
121	0x3cd41ae6	0.025891732
122	0x3d00cf65	0.031447787
123	0x3cb6fda8	0.02233775
124	0x3cee944c	0.029123448
125	0x3be85d93	0.007091233
126	0x3cdf0167	0.027222348
127	0x3b50901a	0.0031824172

weight f4 [64, 128]
0	0x3c2f4725	0.0106981145
1	0x3a3b3374	0.0007141151
2	0xbd3e6ac1	-0.046488527
3	0xbd35902a	-0.04432694
4	0x3cee7b8e	0.02911165
5	0x3c8a4056	0.01687638
6	0x3cff612a	0.031174261
7	0x3d878aea	0.06618293
8	0xbcd42d99	-0.025900649
9	0xbb18f80f	-0.0023341214
10	0xbc87e8fa	-0.016590584
11	0xbd90b036	-0.070648596
12	0x3db78201	0.08960343
13	0x3d8a59ae	0.06755386
14	0x3d69e725	0.057105202
15	0x3da4ebca	0.08052786
16	0x3d9d46fa	0.07679553
17	0x3d89e2ef	0.06732737
18	0x3df2334e	0.11826192
19	0xbc86d4cc	-0.016458891
20	0xbd20f716	-0.03929814
21	0x3da474a6	0.080300614
22	0x3d7edf02	0.062224396
23	0x3d7fe84d	0.0624774
24	0xbe177915	-0.14792283
25	0x3e12aa11	0.14322688
26	0xbcb9b9ab	-0.022671541
27	0xbba12ba0	-0.0049185306
28	0xbdd70e45	-0.105007686
29	0xbc631b4e	-0.01386149
30	0x3c87c6a5	0.016574213
31	0x3d95bf6a	0.073119
32	0x3d000daf	0.03126305
33	0x3d8c2e21	0.06844736
34	0xbd1bc462	-0.038029082
35	0xbd2b5f57	-0.04183897
36	0x3d0403c8	0.03223017
37	0x3daf20f1	0.08551205
38	0xbd97cdd2	-0.07412304
39	0x3d31f158	0.043443054
40	0xbdc3d4f7	-0.09562104
41	0x3d754b6c	0.05988638
42	0x3c320c52	0.010867195
43	0xbdaab74c	-0.08335742
44	0x3d380b0f	0.04493242
45	0x3c36268c	0.011117589
46	0x3d8557f8	0.06510919
47	0x3d849716	0.0647413
48	0xba55a898	-0.00081504276
49	0x3d85ae88	0.0652743
50	0x3d1d8b9b	0.038463216
51	0xbd5a5ed1	-0.05331308
52	0x3ddc54f7	0.10758393
53	0xbd9b1599	-0.07572479
54	0xbc85891b	-0.016300729
55	0xbddae9a0	-0.10689092
56	0x3c66d5e3	0.0140890805
57	0x3d4dad09	0.050213847
58	0x3d8e44c5	0.069467105
59	0xbdb0cb64	-0.08632544
60	0x3de8cc52	0.11367096
61	0x3db1ad63	0.08675649
62	0x3db77a87	0.08958917
63	0x3d14bde2	0.0363139
64	0x3c4a01cb	0.012329529
65	0x3db88db3	0.09011402
66	0xba257f83	-0.0006313251
67	0x3cf10547	0.029421462
68	0xbd9ed306	-0.07755093
69	0x3d60499b	0.054757696
70	0xbde90e00	-0.113796234
71	0xbd1bbf7d	-0.038024414
72	0xbcfaeef9	-0.03063153
73	0xbd9b19c4	-0.07573274
74	0x3d0a9bd8	0.03384003
75	0x3d00db69	0.031459246
76	0xba580d94	-0.00082417694
77	0xbdb12d00	-0.08651161
78	0xbd8899e2	-0.06669976
79	0xbd2b935f	-0.04188859
80	0x3c8e93a9	0.017404394
81	0xbd9d7836	-0.07688944
82	0xbd61c622	-0.055120595
83	0xbcf6b72d	-0.030116642
84	0x3dc81664	0.09769896
85	0xbd62f8ad	-0.055412937
86	0x3d18f3f3	0.037342023
87	0x3d8fc2f5	0.07019607
88	0xbd9d7ae1	-0.07689453
89	0xbdacb4cb	-0.08432921
90	0x3cf8a25e	0.03035086
91	0x3d944d46	0.07241301
92	0x3db671cb	0.08908423
93	0xbdf1e0de	-0.11810468
94	0x3cd9b763	0.026576703
95	0x3d636339	0.055514548
96	0xbd8e75c5	-0.069560565
97	0x3da4f69b	0.08054849
98	0x3c1248da	0.008928502
99	0x3db4afdb	0.08822604
100	0xbd73cd03	-0.059521686
101	0xbdc72ed6	-0.0972573
102	0x3cf5cb95	0.030004302
103	0x3dccb6bf	0.099957936
104	0xbce3b0d8	-0.027794287
105	0xbc8f1dc1	-0.017470242
106	0xbcfe22ff	-0.031022547
107	0x3d078eb0	0.03309506
108	0xbdbfb98d	-0.09361563
109	0x3d99e0c9	0.075135775
110	0xbbf76aa1	-0.007550553
111	0xbd3b2cc6	-0.045696996
112	0x3cf72fe8	0.03017421
113	0x3d18b326	0.037280224
114	0x3ded977c	0.11601159
115	0x3d864c5b	0.065575324
116	0xbc9b341c	-0.018945746
117	0xbd949838	-0.07255596
118	0x3c750b9d	0.014956382
119	0xbd5fedab	-0.054670017
120	0x3d69c1a2	0.05706943
121	0x3d8f7370	0.0700444
122	0xbdb097a0	-0.0862267
123	0xbd88c39c	-0.066779345
124	0x3d9de42d	0.07709537
125	0xbd46bab7	-0.04851791
126	0x3d99a97a	0.07503028
127	0xbd369be6	-0.04458227
128	0x3d89d408	0.06729895
129	0xbd27bcab	-0.040951412
130	0xbd997783	-0.07493498
131	0xbd5b9a8b	-0.05361418
132	0x3d8b5d15	0.06804863
133	0xbc7ece60	-0.015552133
134	0xbc977d3f	-0.01849234
135	0xbcab2a88	-0.020894304
136	0x3d71e05d	0.05905186
137	0xbc2d60ca	-0.010582158
138	0x3d0ffd90	0.035153925
139	0xbd90e119	-0.07074184
140	0x3d369f37	0.044585433
141	0xbdbb78e2	-0.09153916
142	0x3ca16498	0.019701287
143	0xbb3056b1	-0.002690714
144	0xbd98b832	-0.074570075
145	0xbd1b5e0c	-0.037931487
146	0x3cac66e4	0.021045156
147	0x3da6f2f4	0.081518084
148	0x3c0d4e92	0.00862469
149	0x3d8e7048	0.0695501
150	0xbdb47e7b	-0.08813187
151	0x3d3231da	0.043504573
152	0x3c8606ac	0.016360603
153	0xbce45667	-0.027873231
154	0x3d273308	0.04082015
155	0xbda5c143	-0.08093502
156	0xbaaf74c6	-0.0013386242
157	0xbd85d3a1	-0.06534506
158	0xbd9b580b	-0.07585152
159	0x3d82ea6e	0.0639237
160	0x3ca16cfa	0.019705284
161	0x3cc54294	0.024079598
162	0x3c5c0444	0.013428751
163	0x3d5f3210	0.054491103
164	0xbc640db7	-0.0139192855
165	0xbd0766f5	-0.03305717
166	0x3d81db8f	0.063407056
167	0x3b9cd449	0.0047860486
168	0x3c666281	0.014061571
169	0x3ca6aeec	0.020347081
170	0xbd8259bd	-0.063647725
171	0xbd3ba061	-0.045807246
172	0x3c10c97f	0.008837103
173	0xbcb0ce11	-0.021582635
174	0xbc7e15a5	-0.01550809
175	0x3d8c06fb	0.06837269
176	0x3d9d6c97	0.076867275
177	0x3d3e565a	0.04646907
178	0x3d4c36fe	0.049857132
179	0x3d8aa7c2	0.067702785
180	0x3b21ff23	0.0024718724
181	0xbd9ff3c2	-0.07810165
182	0xbd81571e	-0.063154444
183	0x3d78c53e	0.06073498
184	0x3a5b7377	0.00083713926
185	0x3da5ce1c	0.08095953
186	0xbd8cd685	-0.06876854
187	0x3b9c7c03	0.0047755255
188	0x3cc152fe	0.023599144
189	0x3d2ca963	0.042153727
190	0xbbce35d2	-0.006293037
191	0x3d6f65de	0.058446757
192	0xbc978361	-0.018495264
193	0xb985966d	-0.00025479813
194	0xbd9585ee	-0.07300936
195	0x3d943e80	0.072384834
196	0xbd4dc115	-0.050232965
197	0xba878077	-0.0010337968
198	0x3bf7e0e3	0.0075646504
199	0x3ca84d49	0.020544665
200	0x3c39495c	0.011308994
201	0xbcc7f283	-0.02440763
202	0x3dbcc645	0.092175044
203	0xbcbc4aec	-0.022984944
204	0xbda2fc8d	-0.079583265
205	0xbca3ad81	-0.019980194
206	0x3b9530cb	0.0045529357
207	0xbc016ff1	-0.007900224
208	0x3d1677ae	0.03673523
209	0x3d2da72f	0.042395767
210	0xbd79f367	-0.061023142
211	0x3ba67a84	0.005080523
212	0x3d1d515b	0.038407665
213	0x3cd0a3bb	0.025468698
214	0xbb1c1448	-0.00238158
215	0x3ce359cb	0.027752778
216	0x3c42541d	0.0118608745
217	0xbd3365fa	-0.043798424
218	0x3d95a1cb	0.0730625
219	0xbce1053f	-0.027468322
220	0xbd365dff	-0.044523235
221	0xbd4279e9	-0.047479544
222	0x3da7ee55	0.08199755
223	0x3c9c8118	0.019104525
224	0xbd47f3e3	-0.048816573
225	0x3caed0b3	0.02133975
226	0xbd7c5378	-0.06160304
227	0x3dad017e	0.0844755
228	0x3d727e25	0.059202332
229	0xbda4dfd7	-0.080505066
230	0x3d3b7720	0.045767903
231	0xbc8f7cbb	-0.01751553
232	0xbd9be3ed	-0.07611833
233	0x3d9e2920	0.07722688
234	0x3d8b9589	0.06815631
235	0x3ce7029b	0.028199485
236	0x3c931f43	0.017959243
237	0xbd396f20	-0.045271993
238	0x3d5943e3	0.053043257
239	0x3c9e29cb	0.019307038
240	0xbd24124f	-0.040056523
241	0x3c963e33	0.018340206
242	0xbd892a74	-0.066975504
243	0x3ae8455c	0.0017720866
244	0xbaee7d98	-0.0018195389
245	0xbb5e96cf	-0.00339644
246	0xbb814282	-0.003944696
247	0xbd6a2abe	-0.05716967
248	0x3d88b4ff	0.06675147
249	0x3d71ade1	0.059003714
250	0xbdb2139a	-0.08695145
251	0xbda9f545	-0.082987346
252	0xbb52ca6e	-0.0032164115
253	0xbd026306	-0.031832717
254	0x3cc9d8dd	0.024639541
255	0x3d25afc6	0.040450834

bias f4 [64]
0	0xbc31f00e	-0.010860456
1	0x3d21f166	0.039536856
2	0x3d8beff5	0.068328775
3	0xbbe5122a	-0.0069906907
4	0xbdaa573d	-0.08317421
5	0x3d61dfbf	0.05514502
6	0x3d03c288	0.03216794
7	0xbd6f1ae6	-0.05837526
8	0xbb25852b	-0.0025256376
9	0x3d73be67	0.059507754
10	0x3da8edf5	0.08248512
11	0xbd0dc48d	-0.034611274
12	0x3bf36c09	0.0074286503
13	0x3ccfac8c	0.025350831
14	0x3ccbc7f6	0.024875622
15	0xbc3448df	-0.011003702
16	0x3cdd7462	0.027033035
17	0x3dac1e95	0.084042706
18	0x3cda1ad2	0.026624117
19	0x3d86fb49	0.065908976
20	0xbd9f1dfa	-0.077693895
21	0xbdabd1e0	-0.0838964
22	0x3d034b84	0.03205444
23	0x3bf320cb	0.0074196807
24	0xbd788795	-0.060676176
25	0x3d04b326	0.03239741
26	0xbd48fb8d	-0.049068023
27	0xbb51c9d7	-0.0032011175
28	0x3d83a44b	0.06427821
29	0x38e271df	0.0001079773
30	0xbc3ec6aa	-0.011644045
31	0xbc2fbfbf	-0.010726868
32	0x3dbed024	0.093170434
33	0x3d9fbbbd	0.0779948
34	0xbb03f860	-0.0020137057
35	0x3d9ebb94	0.077506214
36	0xbccf560b	-0.025309583
37	0xbda1d3dc	-0.07901737
38	0xbd98ee1f	-0.07467293
39	0xbd27ff9e	-0.04101526
40	0x3d491a3a	0.049097277
41	0x3cfce140	0.030869126
42	0xbcd1972e	-0.025584783
43	0xbd355dcd	-0.04427891
44	0xbd94f214	-0.07272735
45	0x3d64cdb7	0.055860247
46	0xbc650859	-0.013979041
47	0xba8e296b	-0.0010846084
48	0x3b059d62	0.0020387997
49	0xbb03803a	-0.0020065443
50	0xbd1d4f1d	-0.038405526
51	0xbcf15878	-0.02946113
52	0x3cef846e	0.029237952
53	0xbd03b6d7	-0.03215679
54	0xbd83e2c8	-0.064397395
55	0x3c35e10f	0.011101021
56	0xbcac63d8	-0.021043703
57	0x3dc3ca06	0.09560017
58	0x3c9c5d9b	0.019087603
59	0xbd012733	-0.031531524
60	0xbce89af9	-0.02839421
61	0xbd4912e9	-0.0490903
62	0xbd7b9df9	-0.06142995
63	0x3cb60352	0.02221838

weight f4 [10, 64]
0	0xbdc62968	-0.09675866
1	0x3e00ba55	0.1257108
2	0x3e7a8be7	0.24467431
3	0x3e88fd76	0.26755875
4	0xbd0acd02	-0.033886917
5	0xbe8053b1	-0.2506385
6	0xbe35ab83	-0.17741208
7	0xbdfe3032	-0.12411536
8	0x3d81629c	0.06317636
9	0xbdcff26e	-0.10153662
10	0xbd5f98ad	-0.054588962
11	0xbdbdff98	-0.09277266
12	0xbddc195d	-0.10747025
13	0xbde12c10	-0.109947324
14	0x3daf11ea	0.08548339
15	0xbe193052	-0.14959839
16	0xbd4f046e	-0.050541334
17	0x3e3b5812	0.18295315
18	0xbe04e4da	-0.12977925
19	0x3df92ae8	0.12166387
20	0x3e5040a9	0.20337166
21	0xbdcfb21e	-0.10141395
22	0xbd35004b	-0.044189733
23	0x3e90fb7b	0.28316864
24	0xbdc04d09	-0.09389693
25	0xbe702c16	-0.23454317
26	0x3a82d8da	0.000998284
27	0xbdda1153	-0.106478356
28	0x3e286609	0.16445173
29	0xbc8ec0e6	-0.017425966
30	0x3d78ad4d	0.060712148
31	0xbe31b912	-0.17355755
32	0x3d9e1c52	0.077202454
33	0xbd97ca69	-0.074116535
34	0x3d8ab1fc	0.06772229
35	0xbe75c1fa	-0.23999777
36	0x3c57e831	0.013177917
37	0xbda6bc5e	-0.08141397
38	0xbdade79b	-0.08491441
39	0x3e07f2e3	0.13276248
40	0xbe0f20f2	-0.13977411
41	0xbc23862a	-0.009980718
42	0x3ebad2ea	0.3648904
43	0x3cacb8b6	0.02108417
44	0x3d9e7cb0	0.07738626
45	0xbe1abbeb	-0.15110748
46	0xbe4d3b59	-0.2004217
47	0x3b993b7b	0.00467628
48	0x3da2c425	0.07947568
49	0x3d97415b	0.073855124
50	0xbdb6d252	-0.08926834
51	0x3ce77800	0.028255463
52	0xbdf40e37	-0.11916774
53	0xbe15e4e4	-0.14638096
54	0xbdfd9cfb	-0.12383457
55	0xbd6e34fe	-0.058156006
56	0x3db5fd0f	0.08886158
57	0x3e3285d5	0.17433865
58	0x3e0c7e92	0.13720158
59	0xbd7d70c6	-0.061875127
60	0xbdeb3569	-0.114847966
61	0xbe935325	-0.28774372
62	0x3dd5a6f7	0.10432237
63	0x3da2f87c	0.07957551
64	0x3dd271ae	0.10275589
65	0x3b8c00be	0.0042725494
66	0xbc28efa7	-0.010311044
67	0xbe618811	-0.22024561
68	0xbdcea5a5	-0.10090188
69	0x3e05cc73	0.13066272
70	0x3d76d2d0	0.06025964
71	0x3cf76ab7	0.030202253
72	0xbe09197f	-0.13388632
73	0x3dc47c99	0.095940776
74	0xbe0c1efc	-0.13683695
75	0xbc9c0d93	-0.019049441
76	0x3bc81bef	0.0061068456
77	0x3d54b0a2	0.051926263
78	0xbd8a13af	-0.067420356
79	0x3e4ae2e0	0.19813108
80	0xbe4552fa	-0.19269934
81	0x3dbdfc93	0.0927669
82	0x3c4152d8	0.011799537
83	0x3da3a6bd	0.07990787
84	0x3dfe8d09	0.12429244
85	0x3dbb835e	0.09155916
86	0xbe4acc30	-0.19804454
87	0xbe7d49c1	-0.24735166
88	0xbe1b985f	-0.15194844
89	0x3e44f957	0.1923574
90	0x3d156004	0.03646852
91	0x3cda6881	0.02666116
92	0x3e534a4f	0.20633815
93	0xbe37a7cf	-0.17935108
94	0x3d43611f	0.047700044
95	0xbd3af11a	-0.04564009
96	0x3dc94e19	0.09829349
97	0xbd9c63b4	-0.07636204
98	0x3de9b346	0.11411147
99	0xbcc85b91	-0.024457725
100	0xbdee9da8	-0.11651164
101	0xbceaefb3	-0.02867875
102	0xbdac4bd0	-0.084128976
103	0x3d8980f6	0.067140505
104	0x3eb56156	0.35425824
105	0xbde8b706	-0.11363034
106	0xbead4a0a	-0.3384555
107	0xbd0bda5d	-0.034143794
108	0xbe055f11	-0.13024546
109	0x3e06b1db	0.13153784
110	0xbc74e308	-0.014946707
111	0x3e27e535	0.1639603
112	0xbedaa7bf	-0.42706105
113	0x3de05b8c	0.10954961
114	0x3d6dca04	0.058053985
115	0xbd08b7bc	-0.033378348
116	0xbe15ee62	-0.14641717
117	0xbd59388d	-0.053032447
118	0xbd4f9784	-0.050681606
119	0x3e21a8e5	0.15787084
120	0xbe172543	-0.14760308
121	0xbb7ab5dd	-0.0038255372
122	0x3da320ec	0.07965264
123	0x3df2936a	0.11844523
124	0xbddad381	-0.106848724
125	0x3e6a0c79	0.2285632
126	0xbc113dee	-0.008864863
127	0x3d7c68f2	0.06162352
128	0xbe5dd33f	-0.21662615
129	0xbd1650c9	-0.036698136
130	0xbd53c034	-0.05169697
131	0xbe3a4da2	-0.18193677
132	0xbdbb1597	-0.09134977
133	0xbe18ad9e	-0.1490998
134	0xbe43fa0b	-0.19138353
135	0xbb7f3eaf	-0.0038947274
136	0x3e11397b	0.14182083
137	0xbe5a751f	-0.2133374
138	0x3c5bb07f	0.013408779
139	0x3de9debe	0.11419438
140	0xbd4fddc0	-0.050748587
141	0xbd17912d	-0.037003685
142	0x3c939cfb	0.01801919
143	0x3dea30d0	0.114350915
144	0x3d2a911f	0.041642305
145	0x3e0d1602	0.13777927
146	0x3dcd5259	0.10025472
147	0xbe6cde88	-0.23131764
148	0x3dea9131	0.11453474
149	0xbd2a9750	-0.04164821
150	0x3dfb7207	0.12277608
151	0x3e57a8f4	0.21060544
152	0xbdec2253	-0.11529984
153	0x3ddb9c50	0.107231736
154	0x3cacfaa7	0.021115614
155	0x3dcc1c4d	0.099663354
156	0x3e3031cb	0.17206495
157	0x3d5e701f	0.054306146
158	0x3dd5eab7	0.10445159
159	0x3cb82929	0.022480564
160	0x3e8f8aac	0.28035486
161	0xbd2bb481	-0.04192019
162	0xbd92cf46	-0.071684405
163	0x3d72b624	0.059255734
164	0xbdf4603c	-0.11932418
165	0x3e2ba97a	0.16763869
166	0x3d9fc450	0.078011155
167	0xbe38e0b9	-0.18054475
168	0xbd2b8798	-0.04187736
169	0x3dc4ff85	0.09619049
170	0xbdd65788	-0.10465914
171	0x3e38db4d	0.18052407
172	0x3e922c8d	0.28549615
173	0xbd0d0377	-0.034427132
174	0xbdf2cf3d	-0.11855934
175	0x3e15396e	0.14572689
176	0xbe967832	-0.29388577
177	0xbd8f0cdb	-0.06984874
178	0xbd45f218	-0.04832658
179	0xbdb6fb62	-0.08934666
180	0x3e017dd5	0.12645657
181	0x3bbff56d	0.0058581145
182	0xbd8420b5	-0.06451551
183	0xbde640d6	-0.11242835
184	0xbdb765b7	-0.089549474
185	0x3e25b752	0.16183212
186	0x3dd2c8d3	0.102922104
187	0xbe247db9	-0.16063584
188	0x3e846e91	0.25865605
189	0x3e3dc750	0.18533063
190	0x3ce2c562	0.02768201
191	0xbdc866ba	-0.097852185
192	0x3de2fa9a	0.11082955
193	0xbe036d4f	-0.12834667
194	0xbc873612	-0.016505275
195	0x3da661f3	0.08124151
196	0x3df2f13c	0.11862418
197	0x3e255de4	0.16149098
198	0xbd868ff1	-0.065704234
199	0x3ddf0098	0.10888785
200	0xbcf4d910	-0.02988866
201	0x3e02c4ad	0.12770338
202	0xbe35ef71	-0.17767121
203	0xbcdb3bed	-0.026761973
204	0xbdddb7bc	-0.1082606
205	0x3da78536	0.08179705
206	0xbd86843b	-0.0656819
207	0xbd81929f	-0.06326794
208	0xbe3da837	-0.185212
209	0x3da0252f	0.07819592
210	0xbe3f8045	-0.18701275
211	0xbe30d9a5	-0.17270525
212	0x3e94910b	0.2901691
213	0xbdfe9f04	-0.124326736
214	0xbd40004d	-0.046875287
215	0x3d83b52e	0.06431042
216	0x3e7982bf	0.24366282
217	0x3e1ba006	0.15197763
218	0x3d6fe368	0.05856648
219	0xbc670941	-0.014101327
220	0xbda5be13	-0.080928944
221	0x3e60591d	0.21908994
222	0xbd184874	-0.03717847
223	0x3db6bad9	0.08922357
224	0x3e2825e4	0.16420704
225	0xbb59846d	-0.0033190504
226	0xbcd8b530	-0.026453584
227	0xbdc411a3	-0.095736764
228	0x3dd136ca	0.10215528
229	0xbe1d0607	-0.1533433
230	0xbda2f354	-0.079565674
231	0xbe1a781e	-0.15084884
232	0x3e3b3e0d	0.18285389
233	0xbdf8adff	-0.12142562
234	0xbe8c8553	-0.27445468
235	0xbde07609	-0.109600134
236	0xbb4f0e78	-0.0031594317
237	0xbddd0c0b	-0.10793313
238	0xbe05f4cb	-0.13081662
239	0xbdf2db98	-0.118582904
240	0x3dde0e6a	0.10842593
241	0xbe05b2eb	-0.13056533
242	0x3de97076	0.11398403
243	0xbce96850	-0.028492123
244	0x3e66ecef	0.2255132
245	0xbe64b3e6	-0.22334251
246	0x3e744340	0.23853779
247	0xbd933d22	-0.071893945
248	0x3d685ba7	0.05672803
249	0xbd3c254b	-0.045934003
250	0x3e2d6cf5	0.16936095
251	0xbdf8aa1a	-0.12141819
252	0xbdbb1fdb	-0.09136935
253	0xbcf6c935	-0.03012524
254	0x3bb5a859	0.0055437502
255	0x3c919bb8	0.017774448

bias f4 [10]
0	0x3a221ea9	0.0006184378
1	0xbd47d061	-0.04878271
2	0xbd4999c6	-0.049218915
3	0x3e14a9d0	0.14517903
4	0xbd034fcd	-0.032058526
5	0x3c14352c	0.00904588
6	0xbdb7d9e6	-0.08977108
7	0xbc5da569	-0.013528206
8	0xbde8aefb	-0.113615
9	0xbd18fd2c	-0.03735082
